Homework/Hw13/snapshot/model0.pth (torch, 127082 bytes, 10 tensors)

conv1.weight f4 [6, 3, 5, 5]
0	0xbd526c4d	-0.051372815
1	0xbddec5ac	-0.10877547
2	0x3d3b7858	0.045769066
3	0x3d428465	0.047489543
4	0x3c9516cd	0.018199349
5	0xbd807b5b	-0.06273528
6	0x3d4c0b9d	0.049815763
7	0xbd350dc9	-0.0442026
8	0xbdc95bfc	-0.09831998
9	0xbd4853bc	-0.04890798
10	0xbd872f99	-0.066008754
11	0x3d9d7bdd	0.07689641
12	0xbd8d7d8c	-0.06908712
13	0xbcd43865	-0.025905797
14	0xbdaa5218	-0.083164394
15	0xbd844cfc	-0.06459996
16	0xbe093791	-0.13400103
17	0xbd9aede6	-0.07564907
18	0x3d85d60f	0.06534969
19	0xbd5e7b1b	-0.05431662
20	0x3d029e6c	0.031889364
21	0x3ceff46f	0.02929136
22	0xbb762e2f	-0.0037564149
23	0xbd4e9680	-0.050436497
24	0x3d11ae50	0.035566628
25	0xbe0edc44	-0.13951212
26	0xbda59036	-0.08084147
27	0x3db13994	0.0865356
28	0xbd049e21	-0.032377366
29	0x3c58bcb4	0.013228584
30	0xbe09d433	-0.13459854
31	0x3c5f6e7b	0.01363718
32	0xbd42de51	-0.0475753
33	0x3d789a2e	0.060693912
34	0xbdf4e56d	-0.11957822
35	0x3daa3d6d	0.08312497
36	0xbdc75ced	-0.09734521
37	0xbd8f7b80	-0.07005978
38	0x3d855138	0.06509632
39	0x3cf4d61e	0.029887255
40	0x3d30880a	0.043098487
41	0xbc59d61a	-0.013295675
42	0xbcbdb0bc	-0.023155563
43	0x3bfbd61c	0.007685436
44	0xbe087cd0	-0.13328862
45	0xbda2f99c	-0.079577655
46	0x3d315a1b	0.043298822
47	0xbdf39b5b	-0.11894866
48	0x3d855324	0.065099984
49	0xbdb2973b	-0.08720251
50	0x3c79cb49	0.015246221
51	0x3ca72678	0.020404086
52	0xbd876a9d	-0.06612132
53	0xbd9c2da2	-0.07625891
54	0x3d3ff037	0.046859946
55	0xbd29a094	-0.041412905
56	0xbdd4c36e	-0.10388838
57	0x3d72d07c	0.059280857
58	0xbe125604	-0.14290625
59	0xbabfaf7b	-0.0014624441
60	0xbd79ad38	-0.06095621
61	0x3d2453a5	0.040118832
62	0xbc4d8acd	-0.0125453
63	0xbe0f1655	-0.13973363
64	0xbe0584dc	-0.13038963
65	0x3c22d844	0.009939257
66	0x3cbb87e5	0.022891948
67	0x3cd8a021	0.026443543
68	0xbe07e985	-0.13272674
69	0x3d1595f4	0.03651996
70	0xbdd72f3e	-0.105070576
71	0xbd9c497a	-0.07631202
72	0xbd22698b	-0.039651435
73	0x3db96a31	0.090534575
74	0x3ac5d9dd	0.0015094836
75	0xbdcfcdca	-0.10146673
76	0xbccf0b2a	-0.025273878
77	0x3bae9f94	0.005329082
78	0xbdaed804	-0.085372955
79	0x3d8d33c9	0.06894643
80	0x3c7ed06a	0.0155526195
81	0x3de06eee	0.10958658
82	0x3cb15e3a	0.021651376
83	0xbafa7141	-0.0019107239
84	0xbdd0db1a	-0.1019804
85	0x3d866f15	0.06564156
86	0xbd69a936	-0.057046138
87	0xbda535bd	-0.080668904
88	0xbda55008	-0.080719054
89	0x3b5d3214	0.0033751773
90	0xbce24ca0	-0.027624428
91	0xbd6aee50	-0.05735618
92	0x3cdbd448	0.026834622
93	0x3d5e74c6	0.054310583
94	0xbcb1eb60	-0.02171868
95	0xbd854908	-0.0650807
96	0x3d80dfa6	0.062926576
97	0xbd8c2c4d	-0.06844387
98	0x3d7891cd	0.06068592
99	0xbc6fc0fe	-0.014633415
100	0x3da418a8	0.08012515
101	0x3deb5f72	0.11492814
102	0x3d802b80	0.06258297
103	0x3d37a409	0.04483417
104	0xbd828f41	-0.0637498
105	0x3e0ee486	0.13954362
106	0x3e116712	0.14199474
107	0xbd556a05	-0.05210306
108	0x3ddea003	0.108703636
109	0xbcc2c9f5	-0.023777941
110	0x3e012d2f	0.12614892
111	0xbbe54672	-0.006996923
112	0x3db0977b	0.086226426
113	0x3bcb47cd	0.0062036277
114	0x3b833cf8	0.004005071
115	0x3d9cbd2a	0.07653268
116	0xbc9ae6f1	-0.01890895
117	0x3d7257a0	0.059165597
118	0xbcd6f14e	-0.02623811
119	0x3d7163c6	0.058933042
120	0xbd7adee3	-0.061247718
121	0x3d2be82f	0.041969474
122	0xbbe57594	-0.007002542
123	0x3de9d037	0.11416667
124	0x3e07d70a	0.13265625
125	0x3d595494	0.053059176
126	0x3e14db00	0.14536667
127	0x3e14f0e9	0.14545025
128	0x3e46da61	0.19419242
129	0x3dbc6d89	0.0920058
130	0x3e350f22	0.17681554
131	0x3d9a4e33	0.075344466
132	0x3daf70e0	0.08566451
133	0x3e065efe	0.13122174
134	0x3e346761	0.17617561
135	0x3d654a77	0.05597922
136	0x3e35b64e	0.17745325
137	0x3d9cee1b	0.076626025
138	0xbc83a5ad	-0.016070211
139	0x3de5c0b0	0.11218393
140	0x3e40c20c	0.18824023
141	0x3e23e973	0.16007023
142	0x3e22f9ee	0.15915653
143	0x3e403b46	0.18772611
144	0x3df804e1	0.121103056
145	0x3ddab261	0.10678554
146	0x3d71f989	0.059075866
147	0x3e140cda	0.14458027
148	0x3da86240	0.08221865
149	0x3df6b576	0.1204633
150	0xb9cb3be3	-0.00038763796
151	0xbda2034d	-0.07910786
152	0xbc8cd3c2	-0.017190818
153	0x3d76ece1	0.0602845
154	0x3d6509b0	0.05591744
155	0xbde0ce8e	-0.10976897
156	0xbc7506d6	-0.014955243
157	0xbda02ef6	-0.07821457
158	0xbd98b3ed	-0.07456193
159	0xbdb8846c	-0.090096325
160	0xbb008c90	-0.0019615032
161	0x3d401f47	0.04690483
162	0xbe0b4e23	-0.13604026
163	0xbcc5f6ea	-0.02416559
164	0x3c40e313	0.011772889
165	0x3b33c52b	0.0027430754
166	0xbc777434	-0.015103389
167	0x3d4296c9	0.04750708
168	0xbd10361b	-0.03520785
169	0x3bb041e9	0.005378951
170	0xbdaa5dcb	-0.08318671
171	0xbd30555d	-0.04305016
172	0xbd9dcffa	-0.07705684
173	0xbe0e19b8	-0.13876998
174	0xbdfe1829	-0.12406952
175	0x3c8cea26	0.017201494
176	0xbe14b5f1	-0.1452253
177	0xbe03a5a2	-0.12856153
178	0xbe099388	-0.13435185
179	0xbc87dfe3	-0.01658625
180	0xbdacbdd1	-0.08434642
181	0xbcbd6b7b	-0.02312254
182	0xbe36f16f	-0.17865537
183	0xbda5f5cd	-0.081035234
184	0xbdd1c379	-0.102423616
185	0xbe2e130b	-0.16999452
186	0xbe411113	-0.1885417
187	0xbc7e923d	-0.015537796
188	0xbdb08619	-0.08619327
189	0xbdb1f346	-0.08688979
190	0xbdcbd8bf	-0.099534504
191	0x3aec788a	0.0018041295
192	0xbe0f5049	-0.1399547
193	0xbdd4e5f7	-0.10395425
194	0xbd9d826c	-0.076908916
195	0xbd413d92	-0.04717786
196	0xbdf92295	-0.12164799
197	0x3ca8ddc3	0.020613557
198	0xbe237b32	-0.15964964
199	0xbd7cd677	-0.061727967
200	0xbde1aa33	-0.11018791
201	0xbe6578ff	-0.22409438
202	0xbdfeee62	-0.12447812
203	0xbd54e0e1	-0.051972274
204	0xbe5645e9	-0.20925106
205	0xbe228964	-0.15872723
206	0xbe51df97	-0.20495449
207	0xbd52228e	-0.051302485
208	0xbe2c8e0c	-0.16851062
209	0xbdfb68c4	-0.12275842
210	0xbe2d13db	-0.16902106
211	0xbe2e3bf1	-0.17015053
212	0xbde60459	-0.11231298
213	0xbe64b89d	-0.2233605
214	0xbdb49226	-0.08816938
215	0xbe3f36d8	-0.18673265
216	0xbe2e8b2c	-0.17045277
217	0xbded7067	-0.11593705
218	0xbe589055	-0.21148808
219	0xbd6c97c8	-0.057761937
220	0xbb9018e5	-0.004397499
221	0xbd9b3c04	-0.075798064
222	0xbe545f10	-0.20739388
223	0xbe522be8	-0.20524561
224	0xbd6b3b3f	-0.05742955
225	0x3cedae31	0.029013725
226	0xbcf00cdd	-0.029303009
227	0x3b2dce1d	0.0026520558
228	0x3c233d25	0.009963308
229	0x3d37f319	0.04490957
230	0xbdb4b114	-0.088228375
231	0x3dccf1aa	0.10007031
232	0x3ced795c	0.028988533
233	0xbd640e61	-0.055677775
234	0x3d9ff31f	0.078100435
235	0xbdae65a3	-0.085154794
236	0x3d7a6af7	0.061137166
237	0x3dbc9088	0.09207255
238	0xbc90cb25	-0.017674992
239	0x3dd1021b	0.1020548
240	0xbdf43fb8	-0.11926216
241	0xbddd605b	-0.10809394
242	0xbd9fa29b	-0.077946864
243	0x3d41348f	0.047169264
244	0xbdbb3511	-0.09140981
245	0xbce98d87	-0.028509868
246	0xbd19fd39	-0.037595008
247	0xbd176940	-0.03696561
248	0xbdc23d35	-0.094843306
249	0x3be9bb8d	0.0071329535
250	0x3c4dadef	0.012553676
251	0x3cfced6d	0.030874932
252	0xbdb88747	-0.09010177
253	0x3d9a70ae	0.07541023
254	0xbd2e85c3	-0.042608034
255	0x3d18005f	0.03710973

conv1.bias f4 [6]
0	0xbd9055d7	-0.07047623
1	0x3d4a8ea7	0.04945245
2	0x3e365e22	0.17809346
3	0xbd406766	-0.04697361
4	0xbd125289	-0.035723243
5	0x3e3668a0	0.17813349

conv2.weight f4 [16, 6, 5, 5]
0	0x3d586059	0.05282626
1	0x3d78d446	0.060749315
2	0xbd1d47db	-0.038398605
3	0xbc0925bc	-0.008370813
4	0x3d8478f2	0.06468381
5	0x3c8eb601	0.01742077
6	0xbd3b99b8	-0.045800894
7	0x3d6bd0c4	0.05757214
8	0x3d0d945b	0.03456531
9	0xbc8df424	-0.01732833
10	0x3ccf1bfb	0.025281897
11	0xbc8ce97e	-0.017201182
12	0xbcdd51db	-0.02701657
13	0x3d1eebc6	0.03879907
14	0x3d8e9a02	0.069629684
15	0x3d02fc7f	0.03197908
16	0xbd98127d	-0.07425401
17	0xbc854a4a	-0.016270775
18	0x3d3f05d8	0.046636432
19	0xbd5c86d0	-0.053839505
20	0x3d73ec0f	0.059551295
21	0xbced920b	-0.029000303
22	0x3d8b311f	0.067964785
23	0x3d6c56cc	0.057699963
24	0xbcfae034	-0.030624487
25	0x3df0a244	0.117497
26	0x3da22f23	0.07919147
27	0x3dd25665	0.10270385
28	0x3db7786d	0.08958516
29	0x3d51046f	0.05102962
30	0x3de4614e	0.11151372
31	0x3cb40c5b	0.021978548
32	0x3d979663	0.07401731
33	0x3c98e10e	0.018662002
34	0x3c273cf0	0.0102074
35	0x3db93d77	0.090449266
36	0x3ce4fadd	0.027951652
37	0x3cca5e06	0.024703037
38	0x3ddffe9c	0.10937235
39	0x3d6bd745	0.057578344
40	0x3da9867e	0.082776055
41	0x3db5b968	0.08873254
42	0xbd62ddc8	-0.05538729
43	0x3cc85610	0.0244551
44	0x3d94b2f7	0.07260697
45	0xbd77f7d3	-0.060539078
46	0x3ca88ea7	0.020575834
47	0xbad826d5	-0.0016491065
48	0xbd4dfb4f	-0.050288495
49	0x3a931784	0.0011222218
50	0xbd9133b5	-0.070899405
51	0xbdb7c83e	-0.0897374
52	0xbc8db288	-0.017297044
53	0x3c018386	0.007904893
54	0x3c4e2d24	0.012584005
55	0xbd4142f0	-0.047182977
56	0xbac285b3	-0.0014840871
57	0xbd01e72b	-0.0317146
58	0x3ccb4881	0.024814846
59	0xbd8c31e2	-0.06845452
60	0xbd31356c	-0.043263838
61	0x3d901c0f	0.07036602
62	0xbd5c3f0e	-0.05377107
63	0x398a756c	0.00026408897
64	0x3b1611c2	0.0022898768
65	0x3cc73a0d	0.024319673
66	0xbd5c9c68	-0.053860098
67	0x3d84bdce	0.06481515
68	0x3d8ca2d0	0.068669915
69	0xbd6b36e7	-0.057425406
70	0x3d845b93	0.06462779
71	0x3d3004a4	0.042973176
72	0xbc2e36ed	-0.0106332125
73	0x3d57db5a	0.052699424
74	0x3d485e72	0.048918195
75	0xbd241fb7	-0.040069308
76	0x3d3f8df4	0.046766236
77	0x3cd14e20	0.025549948
78	0xbcf13cff	-0.02944803
79	0xbd964e7d	-0.07339189
80	0x3d542029	0.051788483
81	0x3c028dab	0.007968347
82	0x3be70cc8	0.007051084
83	0xbd3a866f	-0.045538362
84	0xbd3c1e96	-0.045927607
85	0x3af9901c	0.001904014
86	0x3c7c42a9	0.015396752
87	0xbcaeedfa	-0.02135371
88	0x3d3bef91	0.045882765
89	0x3c8f64ab	0.017504057
90	0xbd659c9b	-0.056057554
91	0x3ce9903b	0.028511157
92	0x3da96d98	0.082728565
93	0xbd1c3d4d	-0.0381444
94	0xbd5ca927	-0.053872254
95	0x3d4c66a2	0.049902566
96	0x3d5e7383	0.05430938
97	0x3d5acf57	0.05342039
98	0x3dad2cb5	0.08455793
99	0xbc346c2c	-0.011012118
100	0x3daed17c	0.0853605
101	0x3de423db	0.111396514
102	0x3cf058c9	0.029339211
103	0x3de0c802	0.109756485
104	0x3dbf0346	0.09326796
105	0xbcf05e39	-0.029341804
106	0xbc232f0e	-0.009959949
107	0x3d8e9c41	0.06963397
108	0x3dabb043	0.08383229
109	0xbbdce965	-0.00674169
110	0xbcd40420	-0.025880873
111	0x3c3ed25b	0.011646832
112	0x3b91b8b2	0.004447066
113	0xbc6ee696	-0.014581343
114	0xbd16e326	-0.03683772
115	0xbd1edfba	-0.03878758
116	0x3bc9fbd1	0.006164052
117	0xbd6bc39f	-0.057559606
118	0x3d28ec27	0.041240837
119	0x3dac0a0e	0.08400355
120	0xbd5af4a3	-0.05345596
121	0xbd05eb46	-0.032695077
122	0xbd89ea85	-0.06734184
123	0x3d4ab562	0.049489386
124	0x3cc2a04e	0.02375808
125	0xbc7a54cc	-0.015279006
126	0xbd4e62dc	-0.05038725
127	0x3cc222bf	0.023698209
128	0xbc97d00a	-0.018531818
129	0x3d811fc7	0.06304889
130	0x3b830b7a	0.003999171
131	0xbd85ee34	-0.06539574
132	0x3d31ba65	0.04339065
133	0xbdb21f54	-0.086973816
134	0xbc957ed0	-0.018248945
135	0x3ce07386	0.027398836
136	0xbd844bc1	-0.064597614
137	0xbcafa885	-0.021442661
138	0xbd83a867	-0.064286046
139	0x3cb25d85	0.02177311
140	0x3d4fdb44	0.050746217
141	0x3d2cdfd0	0.04220563
142	0x3dbbfbc7	0.09178882
143	0x3cc8104a	0.02442183
144	0x3dcd4925	0.10023717
145	0xbc2c2d68	-0.010508873
146	0x3b85c333	0.0040821075
147	0xbd385b22	-0.045008786
148	0xbd0794b2	-0.03310079
149	0x3d45dd10	0.048306525
150	0x3d79f86b	0.061027925
151	0xbc71667f	-0.01473391
152	0xbc950945	-0.018192897
153	0x39f6a6dd	0.000470451
154	0xbccdca06	-0.025120746
155	0x3d973daa	0.07384808
156	0xbd578868	-0.05262032
157	0x3d9c89d9	0.0764348
158	0xbda1c386	-0.07898621
159	0x3d2220f2	0.0395822
160	0xbd1948d9	-0.03742299
161	0xbd6749ed	-0.056466985
162	0xbceb0fec	-0.028694116
163	0xbd10f0c5	-0.035385866
164	0x3d57b3bf	0.052661654
165	0xbca3fde5	-0.020018527
166	0xbd3ea71f	-0.046546098
167	0xbc725159	-0.014789903
168	0xbd410c3b	-0.047130805
169	0x3d2639db	0.04058252
170	0x3d995e9b	0.07488748
171	0x3d7f13d8	0.062274784
172	0xbd8f5544	-0.06998685
173	0x3d6dc0ec	0.058045313
174	0x3d39039e	0.045169465
175	0x3d6ec389	0.058291946
176	0x3ddfe711	0.10932744
177	0x3cbec703	0.023288256
178	0x3d5896c3	0.052878153
179	0x3dadf74b	0.08494433
180	0xbd0ad76f	-0.03389686
181	0xbb2506f8	-0.0025181156
182	0x3dc90dfc	0.098171204
183	0x3d714828	0.058906704
184	0x3d4179f3	0.04723544
185	0x3dcc454b	0.09974154
186	0xbd3127bd	-0.043250788
187	0xbcb4bdac	-0.022063099
188	0x3d8aed57	0.0678355
189	0xbc2b415b	-0.010452594
190	0x3c71482f	0.014726683
191	0x3d732e06	0.059370063
192	0x3dbc925e	0.09207605
193	0x3db429e4	0.087970525
194	0xbd81cc68	-0.063378155
195	0x3d667cf4	0.05627151
196	0xbd700bc5	-0.058604974
197	0xbc2bf101	-0.0104944715
198	0xbd0c9406	-0.034320854
199	0xbd3e6a72	-0.046488233
200	0x3d582641	0.052770857
201	0x3d061522	0.032734998
202	0x3b0ef66c	0.002181436
203	0xbdb90eae	-0.09036003
204	0xbcc372ef	-0.023858516
205	0x3d1a4220	0.037660718
206	0xbd99ffd9	-0.07519502
207	0x3d1693a4	0.036761895
208	0x3cbd2bee	0.023092236
209	0xbd5fee52	-0.05467064
210	0xbd147b7f	-0.036250588
211	0x3ca387f2	0.019962285
212	0xbc640996	-0.013918301
213	0xbd26a192	-0.04068143
214	0xbbce5d38	-0.0062977336
215	0xbd0c2b9f	-0.034221288
216	0xbd88fd5b	-0.06688949
217	0x3ca8fee9	0.020629363
218	0xbd650ba2	-0.055919297
219	0x3d47cf55	0.04878171
220	0x3dbd9bb1	0.092582114
221	0x3cf4a68e	0.029864576
222	0xbc1c616b	-0.009544711
223	0x3dcfa9f9	0.101398416
224	0x3dd008b7	0.10157912
225	0x3cf0f44d	0.029413367
226	0x3c88a08d	0.01667812
227	0xbd1ff3b8	-0.039050788
228	0xbc916c49	-0.01775183
229	0xbd193760	-0.037406325
230	0x3b650a5d	0.0034948804
231	0x3ccbf4bb	0.02489697
232	0x3cff15d5	0.03113834
233	0x3cf2c8da	0.02963679
234	0xbc7c7da5	-0.015410815
235	0x3db14249	0.08655221
236	0xbd0a91da	-0.0338305
237	0xbd844f2c	-0.06460413
238	0x3db5c68a	0.08875759
239	0xbb880b9c	-0.0041517746
240	0x3d4e7bf2	0.050411172
241	0xbd46fda0	-0.04858172
242	0x3d6e9ffd	0.058258045
243	0xbd4cfcfe	-0.05004596
244	0x3d014c7d	0.031567086
245	0xbc490a96	-0.01227059
246	0xbd067bf3	-0.03283305
247	0x3c703594	0.0146612115
248	0x3da70184	0.08154586
249	0x3d1a11b4	0.03761454
250	0x3da5b9f2	0.08092107
251	0xbd24ff2f	-0.040282425
252	0x3ca69d73	0.02033875
253	0x3c5c04a3	0.01342884
254	0x3d2f062d	0.0427305
255	0x3ad4b2af	0.0016227568

conv2.bias f4 [16]
0	0xbbf02f45	-0.0073298537
1	0xbae72fff	-0.0017638205
2	0xbd016424	-0.031589642
3	0xbd51bd6a	-0.05120603
4	0x3d67cdc6	0.056592725
5	0x3dacb460	0.08432841
6	0xbb4cacde	-0.0031230967
7	0xbc1c3096	-0.009533068
8	0x3d07df19	0.033171747
9	0x3dbf68e5	0.09346179
10	0x3ca36df7	0.019949896
11	0x3c81587e	0.015789267
12	0x3d4ac4d7	0.049504127
13	0xbcca443c	-0.02469074
14	0x3d9816d1	0.07426227
15	0xbd04b530	-0.032399356

fc1.weight f4 [64, 400]
0	0x3d2dcdba	0.042432524
1	0xbc903c09	-0.017606752
2	0xbbe82ecc	-0.0070856567
3	0x3c0713bf	0.008244454
4	0x3d09e158	0.03366217
5	0xbd016661	-0.031591777
6	0x3d012a92	0.03153474
7	0x3d45f54d	0.04832964
8	0xbd475348	-0.048663408
9	0x3d19aa7c	0.037516102
10	0x3ca0447a	0.019563902
11	0x3cf58b0e	0.029973533
12	0x3d24ac9e	0.040203683
13	0xbb13ea61	-0.002257012
14	0x3cef0a1c	0.029179625
15	0x3d567ea6	0.052366875
16	0x3c06e6cd	0.008233738
17	0x3d0d6435	0.034519393
18	0xbc91b9ba	-0.017788757
19	0x3d5b9313	0.053607058
20	0xbd145345	-0.036212225
21	0x3c5935c3	0.013257447
22	0x3d3fe97a	0.04685352
23	0x3c92ff55	0.017944017
24	0xbcb955fc	-0.022624008
25	0xbd2f1c4a	-0.042751588
26	0xbd4c0f52	-0.049819298
27	0xbcba8094	-0.022766389
28	0xbc90da67	-0.017682267
29	0x3991d728	0.0002781686
30	0x3c4dfa8f	0.012571945
31	0x3c5360e1	0.012901516
32	0xbd233025	-0.039840836
33	0xbd1863dc	-0.03720461
34	0x3d5aa6d5	0.05338176
35	0x3b5ffa9c	0.0034176474
36	0x3cdb7ee9	0.026793914
37	0x3d4432e3	0.04790009
38	0xbbcb89f2	-0.0062115127
39	0xbd08dd73	-0.033414315
40	0x3cf7394d	0.03017869
41	0x3d359404	0.04433061
42	0x3b1212f4	0.002228913
43	0x3d3b5301	0.045733456
44	0xbc282313	-0.010262269
45	0x3ca0918c	0.019600652
46	0x3d227770	0.039664686
47	0xbd1eea5c	-0.03879772
48	0x3c1f1e2a	0.0097117815
49	0x348a3b69	2.574773e-07
50	0x3c08f2a7	0.008358634
51	0x3d363d57	0.044492092
52	0x3d4894b6	0.048969947
53	0xbd097551	-0.033559147
54	0xbcb2a73d	-0.021808261
55	0x3ca1d4e1	0.019754829
56	0xbc910d26	-0.017706465
57	0x3d3c4ce9	0.045971785
58	0x3d04a7cb	0.032386582
59	0x3d3e9245	0.046526212
60	0x3d3c7994	0.046014383
61	0x3c8e58a4	0.017376252
62	0xbb6020d8	-0.0034199264
63	0xbcd0e718	-0.02550082
64	0xbc636036	-0.013877919
65	0x3d2a5dd3	0.041593384
66	0x3ab7f527	0.0014034853
67	0x3ccfb618	0.025355384
68	0xbd00ef96	-0.031478487
69	0x3d3eeeda	0.046614505
70	0xba955d03	-0.0011395518
71	0xbc79b26f	-0.015240296
72	0xbd2875ed	-0.041128088
73	0xbc831467	-0.01600094
74	0x3d0c8360	0.034304976
75	0xbcc00703	-0.023440843
76	0xbc3d752f	-0.011563583
77	0x3d32128e	0.043474726
78	0x3cb16b52	0.02165762
79	0x3cc1d984	0.02366329
80	0x3bfcea96	0.0077183945
81	0xbce68d5e	-0.028143581
82	0xbcd20df8	-0.025641426
83	0x3be7f00d	0.007078177
84	0xbc00e01e	-0.007865934
85	0x3bba1399	0.0056786058
86	0xbd2f59f8	-0.04281041
87	0xbd3003df	-0.04297244
88	0xbd0800fc	-0.033204064
89	0x3d3d7b06	0.046259902
90	0x3bf5b2ae	0.007498107
91	0xbd3e5093	-0.04646356
92	0x3d28b739	0.04119036
93	0xbbed9df0	-0.0072514936
94	0x3b20823a	0.0024491684
95	0x3c9f17be	0.0194205
96	0xbb8a6215	-0.004223118
97	0xbd1ce244	-0.03830172
98	0x3cc3ccbf	0.023901341
99	0x3d4f5aa0	0.050623536
100	0x3ba2ef09	0.004972343
101	0xbd276c2e	-0.040874653
102	0x3d3af491	0.045643393
103	0x3d042fed	0.032272268
104	0x38bb950f	8.944619e-05
105	0xbd31a7bb	-0.04337285
106	0x3cb5bc83	0.022184616
107	0xbc31116a	-0.0108073745
108	0xbc24d5cb	-0.010060738
109	0x3b42339c	0.0029632812
110	0x3bbc2d16	0.0057426794
111	0x3d058a43	0.03260256
112	0xbc46aaa4	-0.012125645
113	0x3d07bf05	0.033141155
114	0xbd0a810f	-0.033814486
115	0x3d3d4466	0.046207808
116	0x3ccfedb0	0.025381893
117	0x3c346fca	0.011012981
118	0x39b7bbcb	0.00035044397
119	0xbd30f3cd	-0.043201257
120	0x3d43de69	0.04781953
121	0xbcc33408	-0.023828521
122	0x3d08e17e	0.03341817
123	0x3c6bb593	0.014386552
124	0xbd012578	-0.031529874
125	0x3bc45f61	0.0059928154
126	0xbc58c68c	-0.013230931
127	0xbc9d01b4	-0.019165851
128	0x3c4bf4c2	0.0124484915
129	0xbc92a5e4	-0.017901368
130	0xbca66d84	-0.020315893
131	0x3d12ee46	0.035871767
132	0x3cf35a94	0.029706277
133	0x3d03850d	0.03210931
134	0x3c5f44b7	0.013627223
135	0xbd711938	-0.05886194
136	0xbc7838b5	-0.015150239
137	0xbd3a9a5b	-0.04555736
138	0xbc19c810	-0.0093860775
139	0xbd001110	-0.031266272
140	0xbc1d65f9	-0.009606832
141	0x3c2501c9	0.010071226
142	0xbba336b3	-0.004980886
143	0xbc912933	-0.01771984
144	0xbc14a7b9	-0.009073191
145	0xbce8eb98	-0.028432652
146	0xbc43829c	-0.011932995
147	0x3ca6e045	0.020370612
148	0x3d85e523	0.06537845
149	0xbc4e614a	-0.012596438
150	0x3c10457c	0.008805629
151	0xbb9a7a1e	-0.0047142645
152	0x3d1849cc	0.037179753
153	0x3d221ee6	0.03958025
154	0xbc25538b	-0.010090719
155	0xbb17ef90	-0.0023183562
156	0xbca2a156	-0.019852322
157	0x3b50d16b	0.0031863104
158	0xbd1ce9fe	-0.03830909
159	0x393ab53d	0.00017805859
160	0x3d46ca86	0.048532985
161	0x3d355dbb	0.04427884
162	0x3c5cfd1d	0.013488081
163	0x3d334505	0.043766994
164	0xbd199967	-0.03749981
165	0x3ca3a267	0.0199749
166	0xbd1e7f45	-0.038695592
167	0xbba2f96d	-0.0049735815
168	0xbce899a4	-0.028393574
169	0xbcb17f91	-0.021667274
170	0x3aafa534	0.0013400675
171	0x3cc76349	0.024339335
172	0xbd1c7806	-0.0382004
173	0x3c1df954	0.009641964
174	0x3d28cc27	0.04121032
175	0x3bd98737	0.0066384333
176	0x3d39deef	0.04537862
177	0x3d390440	0.04517007
178	0xbc9ad816	-0.018901866
179	0x3bda3792	0.0066594565
180	0x3b91b44c	0.004446542
181	0xbd1e949e	-0.03871595
182	0xbd233dd7	-0.039853897
183	0x3d54c7f8	0.051948518
184	0x3c450fd4	0.0120276995
185	0xbc84643c	-0.016161077
186	0xbca89415	-0.020578424
187	0x3cffabf3	0.031209921
188	0x3d5c2495	0.053745825
189	0x3bab6d68	0.005231548
190	0x3d167fae	0.03674286
191	0x3d427229	0.047472153
192	0xbd09ff05	-0.03369047
193	0x3ba55c87	0.0050464305
194	0x3ca3b1c6	0.01998223
195	0x3cbe0104	0.023193844
196	0xbc64cf37	-0.0139654195
197	0xbc06ddee	-0.008231623
198	0x3c099f61	0.008399815
199	0x3d1c4a37	0.038156714
200	0xbcc84a2e	-0.024449434
201	0xbd356fb8	-0.044295996
202	0x3d3c3e27	0.04595771
203	0xbd041b3c	-0.032252535
204	0x3c658123	0.014007839
205	0x3c99d66a	0.018778998
206	0x3cdd741a	0.0270329
207	0x3c30f18d	0.010799778
208	0x3ca585f8	0.020205483
209	0x3c80321b	0.015648892
210	0x3c881506	0.016611587
211	0xbac3bf9a	-0.0014934421
212	0xbbb13985	-0.005408468
213	0xbd09befc	-0.033629403
214	0xbca41ad8	-0.020032331
215	0xbc4b2196	-0.012398144
216	0xbd095a57	-0.03353342
217	0x3ce0c405	0.02743722
218	0x3c0755d8	0.008260213
219	0xbd55863f	-0.05212998
220	0xbd33a3e8	-0.043857485
221	0x3cdd0988	0.026982084
222	0xbc706ede	-0.01467487
223	0x3d34e529	0.044163857
224	0x3d0f90b9	0.035050128
225	0x3b0bfb30	0.0021359436
226	0xbbcdac82	-0.006276668
227	0x3d4682a3	0.04846443
228	0x3c666374	0.014061797
229	0x3d75131f	0.05983269
230	0x3c9c4481	0.019075634
231	0xbcf7a7b1	-0.030231329
232	0x3d3d1ab4	0.046168044
233	0x3c0e84ba	0.008698637
234	0xbce1608a	-0.027511854
235	0x3d1557c3	0.03646065
236	0x3cbbd15c	0.022926979
237	0x3d04ebb9	0.032451365
238	0x3d0a1b27	0.0337173
239	0x3d11376a	0.035453238
240	0xbcdc643c	-0.026903264
241	0xbc59150c	-0.013249647
242	0x3b1752e8	0.0023090187
243	0x3d4cef68	0.050033003
244	0xbc382d0a	-0.011241207
245	0xbcee3dbd	-0.029082173
246	0x3d313555	0.043263752
247	0x3d579196	0.052629076
248	0x3c7531fa	0.014965529
249	0x3d2b1222	0.04176534
250	0xbbda954a	-0.0066706287
251	0xbd2bd33c	-0.041949496
252	0x3d198a0c	0.037485167
253	0x3cf100e0	0.029419363
254	0x3cbde89f	0.023182211
255	0xbd3f781a	-0.046745397

fc1.bias f4 [64]
0	0x3d32a5eb	0.043615263
1	0xbaa8db90	-0.0012882818
2	0xbc8679d3	-0.016415512
3	0x3c89d8bc	0.01682698
4	0xbc52aa00	-0.012857914
5	0xbc8e5ecc	-0.017379187
6	0x3d2251a7	0.03962865
7	0xbcb660bd	-0.022262925
8	0xbc11e568	-0.008904792
9	0x3c04ab88	0.008097537
10	0x3d543077	0.051804032
11	0x3c8b9164	0.017037101
12	0x3c03e443	0.008050027
13	0x3c3d8628	0.01156763
14	0x3d66ce21	0.056348924
15	0xbcebd585	-0.028788337
16	0xbcd2b912	-0.025723014
17	0x3d215ca2	0.039394982
18	0xbca05a49	-0.019574301
19	0xbd22e435	-0.039768416
20	0x3d58d52b	0.052937668
21	0xbcb68b30	-0.022283167
22	0xbd120806	-0.035652183
23	0x3d10785d	0.035271037
24	0xbd4a3c9e	-0.049374215
25	0x3c7bc2ac	0.015366238
26	0xbd38dafc	-0.045130715
27	0xbcaaf3cb	-0.020868203
28	0x3c7b35c9	0.015332648
29	0x3d36f76d	0.044669557
30	0xbccb5ddf	-0.024825035
31	0x3b4fe382	0.0031721299
32	0x39890d30	0.00026140502
33	0x3ccac26e	0.024750914
34	0x3b4dbe40	0.0031393915
35	0x3c6d89ad	0.0144981565
36	0xbcf4775c	-0.029842071
37	0xbc1006a3	-0.008790645
38	0x3c86ce41	0.016455771
39	0x3c949c70	0.018141001
40	0xbd21e1dc	-0.039522037
41	0xbc0af942	-0.008482279
42	0x3a644ca6	0.0008708931
43	0xbcb05e01	-0.0215292
44	0x3d1f308e	0.038864665
45	0xbbf59435	-0.0074944743
46	0x3d5121a9	0.05105749
47	0xbc0d7551	-0.008633927
48	0xbd49c138	-0.049256533
49	0xbccbfb7d	-0.024900192
50	0xbcc6609e	-0.024215993
51	0xbd0c4f61	-0.03425539
52	0x3c8e75b3	0.017390108
53	0x3d699d59	0.057034824
54	0xbd4a1276	-0.049334012
55	0x3cd1b8aa	0.02560075
56	0x3cb83baa	0.022489388
57	0xbd2e0f1e	-0.042494886
58	0xbb26f2a6	-0.002547422
59	0xbd1f3e68	-0.038877875
60	0xbc46bbbe	-0.012129722
61	0x3d3409cf	0.043954667
62	0x3ae68b2c	0.0017589084
63	0xbd0afdbc	-0.033933386

fc2.weight f4 [32, 64]
0	0x3dbd9123	0.09256198
1	0x3c9a890e	0.01886418
2	0x3deb1bea	0.114799336
3	0x3df35523	0.11881473
4	0x3df5f8e0	0.1201036
5	0x3d1feabb	0.039042216
6	0xbc482729	-0.012216368
7	0x3d3b5852	0.045738526
8	0xbd7738c0	-0.060356855
9	0x3da1e865	0.07905654
10	0xbd742ffa	-0.059616067
11	0xbd3d05aa	-0.04614798
12	0xbbbe45f2	-0.005806678
13	0xbc49ec7a	-0.012324447
14	0x3d95007d	0.07275484
15	0xbdd32c06	-0.10311131
16	0xbddee6d1	-0.108838685
17	0xbcb78f86	-0.022407304
18	0xbd95526e	-0.07291113
19	0xbdcfc36e	-0.10144697
20	0xbd5ad65d	-0.05342709
21	0xbdd50551	-0.10401405
22	0xbd8ff4d2	-0.07029118
23	0x3d054ae0	0.03254211
24	0xbd006194	-0.031343058
25	0xbda1b8bf	-0.07896566
26	0x3c677744	0.014127556
27	0xbd2e52a1	-0.04255927
28	0xbd44882a	-0.04798142
29	0xbd1eab10	-0.038737357
30	0xbd162fc6	-0.036666654
31	0xbd7c7bba	-0.061641432
32	0x3d03a20a	0.032136954
33	0x3defb442	0.11704303
34	0x3cd333e0	0.025781572
35	0xbd3a3a3c	-0.045465693
36	0xbd752424	-0.05984892
37	0x3d80c22c	0.06287035
38	0xbd0aab1f	-0.0338546
39	0xbc01215b	-0.007881488
40	0x3de4d99e	0.1117432
41	0x3d89ef3e	0.06735085
42	0xbcc8bb79	-0.024503456
43	0x3cc26a74	0.023732401
44	0xbd340624	-0.04395117
45	0x3dae57c9	0.085128374
46	0xbd0f97b7	-0.035056796
47	0xbdc67c7a	-0.09691711
48	0x3df1b056	0.118012115
49	0xbdc6a3b8	-0.096991956
50	0xbdb50231	-0.088383086
51	0xbd793f2e	-0.06085127
52	0xbc539146	-0.012913054
53	0xbdaf95ad	-0.0857347
54	0xbdf6a858	-0.12043828
55	0x3bb59021	0.005540863
56	0x3c1488ab	0.009065787
57	0x3dc10656	0.094250366
58	0x3de5fc37	0.11229747
59	0x3dcbd360	0.09952426
60	0x3d7fd8a8	0.06246248
61	0x3daf29c5	0.08552889
62	0xbdea7fb4	-0.11450139
63	0x3d830b2c	0.06398615
64	0xbdc262cf	-0.094915025
65	0xbc93d2b7	-0.018044813
66	0xbd60c10c	-0.054871604
67	0x3dec67e0	0.1154325
68	0x3dcf8049	0.1013189
69	0xbdcff41a	-0.101539806
70	0xbdf198c2	-0.11796714
71	0x3dd876fd	0.1056957
72	0x3dd9d0b7	0.10635512
73	0x3d82832c	0.06372675
74	0xbcb28ee6	-0.021796655
75	0x3e010932	0.12601164
76	0xbda4c908	-0.08046156
77	0x3d8d3e84	0.068966895
78	0xbda7ea75	-0.08199016
79	0xbdeddeeb	-0.11614784
80	0x3dc7b75f	0.09751772
81	0xbdc5a02f	-0.09649693
82	0x3afad9d3	0.0019138403
83	0x3dcb0a82	0.099141136
84	0x3d191735	0.037375648
85	0xbdbf71bd	-0.09347866
86	0x3dc562e2	0.09638001
87	0xbddc3f3a	-0.10754247
88	0xbddb8e1f	-0.10720467
89	0xbc9cbeb3	-0.019133901
90	0xbddd7799	-0.10813827
91	0x3df0e881	0.117630966
92	0xbde022ef	-0.10944163
93	0xbdf58aad	-0.11989341
94	0xbcd12223	-0.025528973
95	0xbd902e03	-0.07040026
96	0xbc0995e9	-0.008397558
97	0x3d88ec24	0.06685665
98	0x3c89ec32	0.01683626
99	0xbd3e99ea	-0.046533503
100	0xbda4b357	-0.08042019
101	0xbdd6b3a2	-0.10483481
102	0x3dcee49a	0.10102196
103	0xbdb7b0b4	-0.0896925
104	0x3c9f0384	0.019410856
105	0x3caa799b	0.02080994
106	0xbd0b9c80	-0.034084797
107	0x3d167de6	0.03674116
108	0x3da53ff9	0.080688424
109	0x3dca2b50	0.098715425
110	0x3b29f087	0.002593072
111	0xbdebd2ed	-0.1151484
112	0x3df75103	0.12075999
113	0x3ce3e24e	0.027817871
114	0xbdeddcec	-0.11614403
115	0x3db605ab	0.088878
116	0xbd80f1b6	-0.06296103
117	0x3cd7b5bf	0.02633178
118	0x3d297891	0.041374747
119	0xbcb9703d	-0.022636527
120	0x3d820f64	0.06350592
121	0x3d7a3c8a	0.06109289
122	0xbcd61d1a	-0.026136924
123	0x3db58ab9	0.0886435
124	0xbdf9e5d6	-0.12202041
125	0x3c5df3c3	0.013546887
126	0xbd156a4e	-0.036478333
127	0x3dc0d232	0.094150916
128	0xbd59fb8d	-0.053218413
129	0x3d6a6ef7	0.05723473
130	0xbd5a67a4	-0.053321496
131	0xbdb2e53a	-0.08735128
132	0xbdf74166	-0.12073021
133	0x3d533539	0.05156443
134	0xbd5dc903	-0.054146778
135	0xbdc6e3a0	-0.09711385
136	0xbd303777	-0.043021645
137	0x3dcd6db1	0.100306876
138	0x3d071348	0.032977372
139	0xbddeb82d	-0.108749725
140	0x3dc38f9d	0.095488764
141	0xbd21988d	-0.039452124
142	0x3dcfb8bc	0.10142657
143	0xbd0147c2	-0.031562574
144	0xbd2cc2c7	-0.04217794
145	0xbdd2e273	-0.10297098
146	0x3d75f67f	0.06004953
147	0xb750a738	-1.24367e-05
148	0xbd7ba1bc	-0.06143354
149	0xba611053	-0.00085855013
150	0xbb9af350	-0.004728712
151	0x3df354bc	0.11881396
152	0xbdc70856	-0.09718387
153	0xbd265b5b	-0.040614467
154	0xbdc2c0fe	-0.095094666
155	0xbdac8204	-0.08423236
156	0xbd66efc7	-0.056381013
157	0xbd7b34b8	-0.061329573
158	0xbde2ab90	-0.11067879
159	0xbd71163a	-0.058859088
160	0xbc9250ec	-0.017860852
161	0xbd46d1ad	-0.048539806
162	0xbdcb234f	-0.09918844
163	0x3d9cf517	0.07663935
164	0xbdf8751c	-0.12131712
165	0xbc7ac721	-0.015306265
166	0x3d92fc15	0.07176987
167	0xbd159ae9	-0.036524687
168	0x3c8262fe	0.015916344
169	0xbd127204	-0.035753265
170	0xbdf3e25c	-0.11908409
171	0xbdcaac1f	-0.09896111
172	0x3dcfd154	0.10147348
173	0xbd58af4f	-0.052901562
174	0x3d0727aa	0.03299681
175	0xbe006012	-0.12536648
176	0xbdf113b1	-0.11771334
177	0x3aa94504	0.0012914245
178	0xbdab2445	-0.08356527
179	0x3df6313f	0.12021112
180	0xbdadf7f7	-0.08494561
181	0xbd7f72f4	-0.062365487
182	0x3bbde11e	0.0057946583
183	0x3cbdda63	0.023175424
184	0xbc845c6d	-0.016157353
185	0x3dfc9d12	0.12334646
186	0x3dfc213d	0.12311027
187	0x3cf6fa58	0.03014867
188	0xbb2c4ebd	-0.002629205
189	0x3d23b8c7	0.03997114
190	0xbdcd4f58	-0.10024899
191	0x3d46c907	0.04853156
192	0xbdb1cc61	-0.0868156
193	0x3c600774	0.013673652
194	0xbd958d3c	-0.07302329
195	0x3d8104d9	0.06299753
196	0xbdade75d	-0.08491395
197	0xbd320233	-0.04345913
198	0xbd5a1c0b	-0.0532494
199	0xbbd32ab2	-0.0064442987
200	0xbce5bf09	-0.028045194
201	0x3cffe3df	0.031236587
202	0xbdd72b52	-0.105063096
203	0x3de51ee5	0.11187533
204	0x3ce3e9b8	0.027821407
205	0xbbd39e1d	-0.0064580576
206	0x3de1e0ce	0.11029206
207	0xbd45210c	-0.04812722
208	0xbbc23684	-0.005926909
209	0x3b4da4ec	0.0031378819
210	0x3d984639	0.07435269
211	0x3d35507c	0.04426621
212	0xbd83e3d1	-0.06439937
213	0xbdb12543	-0.08649685
214	0x3d02859d	0.031865705
215	0xbd9de582	-0.07709791
216	0x3de097cb	0.10966452
217	0x3d98dfb0	0.0746454
218	0x3d57322b	0.05253808
219	0xbdfbe3ad	-0.12299285
220	0x3d69185b	0.056907993
221	0x3d2223d5	0.039584953
222	0x3ddfd972	0.10930146
223	0xbdc18053	-0.09448304
224	0xbc5e3517	-0.013562462
225	0xbcff5f99	-0.031173514
226	0x3db6b7e3	0.08921792
227	0xbdba13fb	-0.09085842
228	0xbdbe667f	-0.09296893
229	0x3c1073fb	0.008816714
230	0x3c522384	0.01282585
231	0x3d97dd84	0.074152976
232	0xbc25b4f5	-0.010113944
233	0x3de99dea	0.11407073
234	0xbc3f51d3	-0.011677223
235	0xbd898fa2	-0.06716849
236	0x3de54cd7	0.11196297
237	0x3c5f4050	0.013626173
238	0xbddf661f	-0.1090815
239	0xbdffee0e	-0.12496577
240	0x3cce6e4a	0.025199074
241	0xbc74701c	-0.014919307
242	0xbda76cee	-0.081750736
243	0xbdc80e93	-0.09768405
244	0xbd9b9854	-0.07597414
245	0xbd371f41	-0.04470754
246	0xbdb1a233	-0.08673515
247	0x3cc4e984	0.02403713
248	0xbdbb3d08	-0.091425
249	0x3d679b55	0.05654462
250	0x3d53eddd	0.051740516
251	0x3b9df3bf	0.0048203166
252	0xbac448da	-0.0014975325
253	0xbdb2f60d	-0.08738337
254	0x3dcf782a	0.10130341
255	0x3d8e9e2d	0.069637634

fc2.bias f4 [32]
0	0xbcb3f7b3	-0.021968698
1	0xbceed27b	-0.0291531
2	0xbe00ac84	-0.1256581
3	0x3d0ab8ae	0.03386753
4	0xbceaf94e	-0.02868333
5	0xbc53afda	-0.012920344
6	0x3dc24588	0.09485918
7	0x3d040d96	0.03223952
8	0xbd345fea	-0.044036783
9	0xbda88636	-0.08228724
10	0x3d1116ac	0.035422012
11	0xbd0dffce	-0.034667782
12	0x3dfe72bb	0.12424227
13	0xbd271f60	-0.040801406
14	0x3e0a02dd	0.13477655
15	0xbd11e5a7	-0.035619404
16	0xbdbb1cce	-0.091363534
17	0x3c6d1d95	0.014472385
18	0x3dca5287	0.09879022
19	0x3e2ab4bb	0.16670506
20	0xbdc633c5	-0.09677843
21	0xbdfd952e	-0.123819694
22	0xbdb64e8a	-0.08901699
23	0x3de9d050	0.114166856
24	0x3cc620e3	0.024185603
25	0xbcea0aa4	-0.028569527
26	0xbb5c01bb	-0.0033570367
27	0x3d7396cc	0.059469983
28	0x3d8cebd7	0.068809204
29	0xbcaffc24	-0.021482535
30	0x3d03d095	0.03218134
31	0x3d08fe1d	0.033445466

fc3.weight f4 [10, 32]
0	0x3d8072d4	0.06271902
1	0x3e02abb9	0.1276082
2	0x3d026e1c	0.03184329
3	0x3c654481	0.013993383
4	0xbdc7dbae	-0.097586975
5	0xbdc67f34	-0.09692231
6	0xbdbbb9ae	-0.09166275
7	0x3d5baf1c	0.053633794
8	0x3c8f11b0	0.017464489
9	0xbe1dcd5b	-0.15410368
10	0x3d94f9c6	0.07274203
11	0xbd8814fb	-0.06644627
12	0x3daf7888	0.085679114
13	0x3e8105eb	0.25199828
14	0x3e329481	0.17439462
15	0xbde467fa	-0.111526445
16	0x3e5b1a80	0.21396828
17	0xbd612bb8	-0.054973334
18	0x3c571057	0.013126454
19	0xbc8c0bca	-0.017095465
20	0xb812f4e5	-3.503719e-05
21	0x3c623e3a	0.013808781
22	0xbdc05798	-0.09391707
23	0xbe4f412b	-0.20239703
24	0x3e33b43e	0.17549226
25	0xba9a0b66	-0.0011752665
26	0x3d321c83	0.043484222
27	0x3cdda61f	0.027056752
28	0xbe1411bd	-0.14459892
29	0x3e91e6b9	0.2849634
30	0xbe874b33	-0.2642456
31	0xbde15cd1	-0.110040314
32	0xbd6b9218	-0.057512373
33	0xbdcf3775	-0.101179995
34	0x3dd5eb5f	0.10445284
35	0xbe09b198	-0.13446653
36	0x3df7751a	0.12082882
37	0xbdcfeb1a	-0.10152264
38	0xbe84d359	-0.25942495
39	0x3e0695a7	0.13143025
40	0xbdf12c55	-0.11776034
41	0xbe1fdab3	-0.15610771
42	0x3dee894e	0.116472825
43	0xbe14dd37	-0.14537512
44	0xbdea5483	-0.114419006
45	0x3ddc2132	0.10748519
46	0xbe54d7d2	-0.20785454
47	0x3e042f63	0.12908702
48	0xbe1e3a3c	-0.15451902
49	0xbd769483	-0.060200226
50	0x3e3287f1	0.1743467
51	0xbc980020	-0.018554747
52	0xbd464828	-0.048408657
53	0xb89b0995	-7.392761e-05
54	0x3d4614b8	0.048359603
55	0xbd1f5d5b	-0.03890739
56	0x3e02657f	0.1273403
57	0xbe146b99	-0.1449417
58	0xbe2a1cba	-0.16612521
59	0x3e8886a0	0.2666521
60	0x3dfaf5fa	0.122539476
61	0x3d858635	0.065197386
62	0x3e02373d	0.12716384
63	0x3e04691d	0.12930723
64	0x3d07b850	0.03313476
65	0x3e3177aa	0.17330804
66	0x3d9f3146	0.0777307
67	0xbe17a12e	-0.14807579
68	0xbd43eb9d	-0.04783212
69	0x398f3f69	0.0002732233
70	0x3b1c8fcc	0.002388942
71	0xbbeae581	-0.0071684723
72	0x3e19e1d3	0.15027551
73	0x3d9996ad	0.07499442
74	0xbcf25f3b	-0.029586425
75	0xbab48b2b	-0.0013774385
76	0x3d9ba455	0.07599703
77	0xbda4f03c	-0.080536336
78	0xbd6df92c	-0.058098957
79	0x3df9d3f6	0.121986315
80	0x3da65a68	0.081227124
81	0x3d903df3	0.07043066
82	0x3e5b01da	0.21387425
83	0x3e03aa89	0.12858023
84	0xbe15aecc	-0.14617461
85	0x3e319a7f	0.17344092
86	0xbe1a2145	-0.15051754
87	0xbd16522a	-0.03669945
88	0x3d5edc7f	0.0544095
89	0xbe191954	-0.14951068
90	0x3e3ecdc4	0.18633181
91	0xbd71f865	-0.059074778
92	0x3d92718f	0.07150566
93	0x3d948364	0.07251623
94	0xbe3b5261	-0.18293144
95	0xbe5a8381	-0.21339227
96	0x3bfb73e4	0.0076737273
97	0x3de87d4d	0.11352024
98	0x3d148402	0.036258705
99	0xbe2a8532	-0.16652372
100	0x3d7d0416	0.061771475
101	0x3d44a7d8	0.04801163
102	0x3e20ad38	0.15691078
103	0x3c89b462	0.016809646
104	0x3e0d01b1	0.13770176
105	0xbc1b2a3d	-0.00947052
106	0xbe1e1322	-0.15436986
107	0xbe2acfd8	-0.16680849
108	0xbe5176ec	-0.20455521
109	0xbdaacd67	-0.08339959
110	0x3d7b0738	0.06128618
111	0x3d82e114	0.063905865
112	0xbe28c716	-0.16482195
113	0x3de44b93	0.11147227
114	0xbc09d72a	-0.0084131155
115	0xbe430254	-0.19043857
116	0x3ba64275	0.0050738403
117	0xba4b1bdc	-0.0007747987
118	0x3d80e55e	0.06293748
119	0x3ddf38e8	0.10899526
120	0xbd3c3d14	-0.045956686
121	0x3e43bca3	0.19114928
122	0x3e6f7ad6	0.23386702
123	0xbc07a8ef	-0.008280023
124	0x3e3592df	0.17731808
125	0xbdfd9c44	-0.12383321
126	0xbb9a2afb	-0.0047048307
127	0x3d3745bb	0.044744235
128	0x3d9dc492	0.077035084
129	0x3de5a977	0.112139635
130	0xbd8ed8bb	-0.06974932
131	0x3dae7053	0.08517518
132	0xbe27857e	-0.16359517
133	0xbc9829ba	-0.018574584
134	0xbdc24aee	-0.09486948
135	0x3d01f8bd	0.031731356
136	0xbe190e33	-0.14946823
137	0x3ca853f4	0.020547844
138	0xbd414628	-0.047186047
139	0xbde40b9c	-0.11135027
140	0x3e0af5b1	0.13570286
141	0xbd34a408	-0.044101745
142	0xbdcd6029	-0.10028107
143	0x3e1fcf75	0.15606482
144	0x3dd52b39	0.10408635
145	0xbda439bb	-0.08018824
146	0x3da99011	0.082794316
147	0x3d38cea6	0.04511895
148	0xbe054a8e	-0.13016722
149	0x3e0acdd6	0.13555083
150	0xbd77322f	-0.060350593
151	0xbdcfdb96	-0.101493046
152	0x3e1a73fb	0.15083306
153	0x3e1fb41a	0.15596047
154	0xbdeaebfc	-0.11470792
155	0xbe458d10	-0.19292092
156	0x3b39a06c	0.0028324379
157	0xbe0e6073	-0.1390398
158	0xbe2f8a99	-0.17142715
159	0x3d0cbd21	0.034360055
160	0x3c1758a2	0.00923744
161	0x3c8abbd4	0.016935267
162	0x3d86eb70	0.06587875
163	0x3d535c01	0.051601414
164	0x3d819034	0.06326333
165	0xbe13882e	-0.14407417
166	0x3d7084bb	0.05872033
167	0x3dd48ba3	0.10378196
168	0x3d0c025c	0.034181938
169	0xbd4c46e4	-0.049872294
170	0xbe5ac725	-0.2136503
171	0xbd2aa3d7	-0.041660156
172	0xbdd915e6	-0.1059988
173	0x3dc32b2b	0.09529718
174	0xbe0a3a4b	-0.134988
175	0xbd1f41df	-0.03888118
176	0x3e0ffb4b	0.14060704
177	0x3e0b2464	0.135881
178	0xbd399e5e	-0.045317046
179	0xbe303b6c	-0.17210168
180	0xbcfdfd53	-0.031004583
181	0x3c7d4756	0.015458902
182	0xbb88bff9	-0.0041732755
183	0x3c8e6d80	0.017386198
184	0x3db67f1d	0.08910964
185	0xbdfae463	-0.122505926
186	0x3eab96a1	0.33513358
187	0x3d2094e2	0.039204486
188	0xbcd4b83d	-0.025966758
189	0xbdbd20b9	-0.09234757
190	0x3dcce24e	0.10004102
191	0xbd60a4a3	-0.05484451
192	0xbe251b1c	-0.16123623
193	0x3d292e97	0.041304197
194	0x3dc5ebc9	0.09664113
195	0x3b4b086a	0.0030980357
196	0x3dca10fc	0.09866521
197	0xbe48db7e	-0.1961498
198	0xbe2fe7d2	-0.17178276
199	0x3e714ce1	0.23564483
200	0xbe32bccf	-0.17454837
201	0x3cf8a9fd	0.030354494
202	0x3e5e7104	0.217228
203	0xbcd06dea	-0.025443036
204	0xbe3356a1	-0.17513515
205	0xbe62ff88	-0.2216779
206	0xbbc0816f	-0.0058748047
207	0x3dcef9c8	0.10106236
208	0x3b90e82b	0.004422208
209	0x3d03281f	0.032020684
210	0xbe5dcd90	-0.21660447
211	0xbe581c8c	-0.2110464
212	0x3dd8aa53	0.10579362
213	0xbd697b60	-0.057002425
214	0xbe0b6218	-0.13611639
215	0x3de78496	0.11304586
216	0x3a260f64	0.0006334691
217	0x3d2ffd83	0.042966377
218	0xbd5da5c8	-0.05411318
219	0xbdc28ca2	-0.0949948
220	0x3e9da930	0.30793142
221	0xbd4b59f5	-0.049646337
222	0x3d2c4a3d	0.042062987
223	0xbd86e8c1	-0.06587363
224	0x3e1a93b4	0.15095407
225	0xbd27d6d3	-0.040976357
226	0xbd78c39e	-0.06073343
227	0xbbfbf813	-0.007689485
228	0x3cc6b7c9	0.024257557
229	0x3da97c78	0.08275694
230	0x3e094e92	0.13408878
231	0x3ce21fc8	0.027603045
232	0xbe2b81a1	-0.16748668
233	0x3e249dc7	0.16075812
234	0x3d7ac237	0.061220374
235	0x3e7c3d13	0.24632673
236	0x3e1cec0c	0.1532442
237	0x3d9f95f6	0.07792275
238	0xbe4a1d66	-0.19737777
239	0x3e40ead5	0.18839581
240	0xbdb1c950	-0.086809754
241	0x3dd8a015	0.10577408
242	0xbe23144b	-0.1592571
243	0xbe0cb956	-0.13742575
244	0xbdefb8ce	-0.117051706
245	0x3d721f9b	0.059112173
246	0xbcf42542	-0.029802922
247	0xbde29d7e	-0.110651955
248	0x3e146cc0	0.1449461
249	0xbe409df4	-0.18810254
250	0x3e37b7a5	0.17941149
251	0xbe950bef	-0.29110667
252	0x3d35d1e2	0.044389613
253	0xbe2e93f7	-0.17048632
254	0x3c239988	0.009985335
255	0xbcac7b5d	-0.021054918

fc3.bias f4 [10]
0	0x3e5c75f4	0.2152937
1	0xbe09aa28	-0.13443816
2	0xbcaadc4d	-0.020857
3	0xbe12e063	-0.14343409
4	0xbe01f7f6	-0.12692246
5	0xba2f4746	-0.0006686341
6	0x3dbc7a12	0.092029706
7	0xbe02d138	-0.12775123
8	0x3e167c6d	0.14695902
9	0xbd66de1b	-0.05636416
