Homework/Hw13/snapshot/model1.pth (torch, 255722 bytes, 10 tensors)

conv1.weight f4 [6, 3, 5, 5]
000000 53 78 e3 3d d2 e4 4c 3d 99 6a b5 3d c1 14 09 bc
       0.111069344 0.050022908 0.088582225 -0.0083667645
000010 ba b7 89 bc 38 a4 df 3d 79 e5 2d bd 28 ae 2a bd
       -0.01681124 0.10919994 -0.04245517 -0.041669995
000020 3c 65 fd bc 4c 69 8a 3c 31 e8 a6 bd ee 0a 26 3c
       -0.030932061 0.016895913 -0.08149756 0.010134442
000030 68 5a d7 3d 79 a1 80 bc ce c5 b8 3c 82 5d de bd
       0.105152905 -0.015701996 0.022555258 -0.10857679
000040 e3 13 67 bc 25 2c bf 3d a0 2e ec 3d 5b de 8b bd
       -0.014103862 0.09334592 0.115323305 -0.0682952
000050 30 02 32 bd bf bd cf bd c9 52 da 3d 2b f3 85 3d
       -0.043459117 -0.10143613 0.10660321 0.06540521
000060 2b 90 da 3d ae 95 01 3e 27 db a2 3d f2 c7 b1 3d
       0.10672029 0.12654755 0.07951956 0.08680715
000070 3c c6 ef 3d 08 a2 91 bd 60 2a c7 3d 46 08 c6 3d
       0.11707732 -0.07110983 0.09724879 0.09669547
000080 9e 55 f8 3d f4 8c a1 3d da 61 c7 3d 36 fd 91 3c
       0.12125705 0.07888213 0.097354606 0.017820936
000090 f9 92 53 bd 9a a0 9b 3b a1 bf c3 3d 3b 13 7f 3d
       -0.051653836 0.00474937 0.09558035 0.0622742
0000a0 87 21 7f bd 55 e2 01 bd 83 8b 2d 3d f1 2f da 3d
       -0.062287834 -0.031709988 0.042369377 0.10653675
0000b0 72 7c f8 3d 7c ad d5 bd 2a 84 cc bd 79 f3 7b bd
       0.12133111 -0.1043348 -0.09986146 -0.06151149
0000c0 92 1f be 3b c6 64 65 3d 24 7d 87 bb 99 57 dd 3d
       0.0058021033 0.05600431 -0.004134791 0.108077236
0000d0 98 89 c8 3d 2e c7 3b 3e 74 49 23 bc f0 ee 18 3c
       0.09791869 0.183377 -0.009966243 0.009334311
0000e0 6c b2 f1 3d c5 ca 96 3c 8d 55 25 3e da ec 07 3e
       0.118016094 0.018407235 0.16145916 0.13273945
0000f0 fc 94 ac 39 aa 6c 1b 3d 6a 09 88 3d 45 b3 9f bc
       0.00032917398 0.037945427 0.066424206 -0.019494662
000100 bb 8a a5 3d fb 9b df 3c 6d fa 4f 3d 5b 91 0c 3d
       0.08083101 0.027296057 0.050775934 0.03431831
000110 e3 fb 03 3e f4 45 09 3e 04 d8 0a 3e b5 12 f3 3d
       0.12889056 0.13405591 0.13558966 0.118688025
000120 da f2 5a 3d 98 b4 94 3d 8b 0f 1d 3e 3a d8 2b be
       0.053454258 0.07261008 0.1533796 -0.16781703
000130 4b 81 db bd 58 e3 16 be 47 b3 6e bd 71 f2 ac bd
       -0.1071802 -0.14735162 -0.05827644 -0.084446795
000140 c3 ad 28 bc 60 b0 e9 bc d9 c7 e4 bd ca a0 2e be
       -0.010295334 -0.028526485 -0.111709304 -0.17053524
000150 26 15 24 be 38 43 38 3c 2b 3a 1c be aa ad 0f 3d
       -0.16023692 0.011246495 -0.15256564 0.03507773
000160 20 36 80 bd 3a a1 1d be f4 03 cc bd b3 e4 32 bc
       -0.062603235 -0.15393534 -0.099616915 -0.010918784
000170 25 f4 28 be 83 5d 8d 3a 5d 4d 42 bd 86 20 2a 3d
       -0.16499384 0.0010785315 -0.04743706 0.041534923
000180 fd a3 b3 bd d9 e3 1a be 1d a9 5b bc 72 f7 0e be
       -0.08771513 -0.1512598 -0.013407019 -0.1396158
000190 0a 4f f5 bd 7d 7a 95 3d 6e b3 c7 3c cb 9a b8 3c
       -0.11977966 0.072987534 0.02437755 0.022534749
0001a0 7e a6 d8 bc 91 a7 df 3d 02 cd 8e 3c 6c 40 a7 bd
       -0.026446577 0.10920633 0.01743174 -0.08166584
0001b0 6f 8b ca 3d 3b 7f 7a bb 73 b3 c7 3d 8e d1 82 3d
       0.09889876 -0.0038222808 0.09751024 0.06387626
0001c0 e5 d4 56 3d 23 bd a4 bd ca 92 b9 bd 61 02 86 3d
       0.052449126 -0.080438875 -0.09061201 0.065434225
0001d0 be a0 9f 3d 67 d5 c8 bd 0a ff c2 3d c0 b6 a1 3d
       0.07794331 -0.09806328 0.09521301 0.07896185
0001e0 69 1d b8 bd 40 d8 b7 bc 6f 70 ad 3d 23 9a c2 bd
       -0.089899845 -0.022441983 0.08468711 -0.095020555
0001f0 a1 00 61 bd 75 51 de 3d 16 a5 10 3e 12 09 c6 3d
       -0.05493224 0.108553804 0.14125475 0.09669699
000200 10 f7 d4 3d 0b 0e 30 3e 91 7f c6 3d 83 ed 1a 3e
       0.10398686 0.17192857 0.096923 0.15129666
000210 42 94 14 3e a3 6a 29 3d 02 4f 39 3e 18 50 e5 3d
       0.14509681 0.041361462 0.18096545 0.11196917
000220 11 55 13 3e 0d 25 49 3e 0c 26 fc 3d a1 9c 59 3e
       0.14387919 0.1964304 0.12311944 0.21251155
000230 69 c0 5c 3d 61 7b 27 3e 22 4d 2e 3e 79 bd 15 3d
       0.053894434 0.16355659 0.17021611 0.03655765
000240 1f 56 ad 3d 97 56 06 3e 58 3f 24 3c fb a7 a2 3d
       0.08463692 0.13118969 0.010024868 0.07942196
000250 94 96 23 3e e5 02 cf 3d b6 32 a2 3d 65 07 29 bc
       0.1597541 0.10107974 0.079198286 -0.010316704
000260 71 c1 8a bd c2 ce e9 3d 66 ed f9 3d 4e 39 5f bd
       -0.06775177 0.11416389 0.12203483 -0.05449801
000270 f9 53 9d bd 94 70 07 be 06 ee 11 be 30 a7 db bd
       -0.07682032 -0.13226539 -0.14250955 -0.10725248
000280 d4 7c aa bd 5d 6a 27 be 15 d9 81 bc d9 cc 59 3d
       -0.0832459 -0.16349168 -0.015850583 0.053173874
000290 b6 6b a0 3c db b1 02 be 3d a6 5b bd 00 6f 4f bd
       0.01958261 -0.12763159 -0.053625334 -0.050642967
0002a0 13 1d 8f bd 19 15 b0 bd b6 cd 03 be b5 2d 08 bd
       -0.06987967 -0.08597774 -0.12871441 -0.033246715
0002b0 7e c5 f0 bd 4b af ab bd 4a 1f 10 be 40 a0 0f be
       -0.11756419 -0.08383044 -0.14074436 -0.14025974
0002c0 f1 c9 f9 bd 2b 34 98 3c 86 f5 4a bd 0a 4c 9a 3c
       -0.121967204 0.018579563 -0.049550556 0.018835086
0002d0 d3 70 c5 bd a7 e6 2d be 24 b2 c1 bd 27 5f bd bd
       -0.0964066 -0.16982518 -0.09457806 -0.092466645
0002e0 90 d2 0e be 11 6a 89 bd 78 81 8f bd b1 73 86 bd
       -0.1394751 -0.06709684 -0.07007116 -0.06565035
0002f0 02 2f a8 bd 01 df 52 be 9d 36 ec bd d7 9b 54 3b
       -0.08212091 -0.20592882 -0.11533854 0.003244152
000300 ca 38 23 be 42 5f 4a be 14 53 ac bd c4 6a e6 bd
       -0.15939632 -0.197629 -0.084142834 -0.11250833
000310 e4 03 11 be 4d c8 5c bc 4e b6 54 be 47 57 c4 bd
       -0.1416164 -0.01347549 -0.20772669 -0.09586959
000320 a4 b6 9b bd 29 5c a8 3d 2c 38 36 bd 9b bd a4 3d
       -0.07603195 0.08220703 -0.044487163 0.08043977
000330 9a 2c d8 bd 67 b3 a0 bd 17 f6 4c 3b bd 51 b3 bd
       -0.10555382 -0.07846718 0.003127461 -0.08755825
000340 d6 be e2 bd cd 66 93 3d 38 ab 0a be 9b 1c 85 bd
       -0.11071555 0.07197342 -0.13541877 -0.06499597
000350 72 ba 2f be 0b d7 f3 bd 04 cf f6 bc 08 a7 77 bd
       -0.17160967 -0.119062506 -0.03012801 -0.060462028
000360 1f 2a 48 bc b8 7a 01 bd 40 67 d8 bd 63 e6 23 be
       -0.012217074 -0.031611174 -0.105665684 -0.16005854
000370 15 42 09 be 5d 9f ec 3c 70 ed a6 bd 03 9e 78 3c
       -0.13404115 0.028884584 -0.08150756 0.015174392
000380 73 ff 8f 3d 31 41 9c 3d 65 9b 19 3d d5 5d 84 bc
       0.07031145 0.07629622 0.03750171 -0.016158024
000390 12 21 85 3b 62 24 b6 3d 00 dd 6d bd 0d 7a 3b bd
       0.00406278 0.08893658 -0.05807209 -0.045770694
0003a0 5a 3c ac bc db 4d fb bd 67 77 e1 bd cf b6 b7 bd
       -0.021024872 -0.12270709 -0.11009102 -0.08970415
0003b0 be cc d2 3d c0 00 05 bc 5f 2d 0f bd fa 20 67 bc
       0.10292958 -0.008117855 -0.03495538 -0.014106983
0003c0 a8 79 ad 3c e8 8c a0 3d 4a 66 0b be b6 1c 03 be
       0.021176174 0.07839376 -0.13613239 -0.12803921
0003d0 c2 c3 26 3c c6 2f 91 bd ed 78 0e bd 92 70 eb bd
       0.010178508 -0.0708919 -0.034783293 -0.114960805
0003e0 d2 c7 87 3d 7a ca 18 bd fd e1 29 bd ea fd a9 3c
       0.066299096 -0.03730247 -0.041475285 0.020750958
0003f0 ca ed 86 3d 98 b6 3e 3d 5d a8 eb bd 22 6d 0e be
       0.065883234 0.046560854 -0.11506722 -0.13908818

conv1.bias f4 [6]
000000 04 33 14 3d 0c 50 9d 3e 5f c2 d6 3d 3e 3a d4 3d
       0.036181465 0.30725133 0.10486292 0.10362671
000010 d1 3c a7 3e f6 e4 46 3e
       0.32663587 0.19423279

conv2.weight f4 [16, 6, 5, 5]
000000 ab e4 25 3d ab 7f b0 b9 e9 3d f9 3b 9a a8 9f bd
       0.040501278 -0.00033664456 0.007606257 -0.0779583
000010 b0 55 55 bb 88 5c cf bc b2 6f 01 bb 59 7e d1 bc
       -0.0032552294 -0.025312677 -0.0019750413 -0.025572943
000020 f4 a3 5e bd c8 2f 8d 3d 2a 9f 24 3d d1 cb 9e 3d
       -0.054355577 0.06893879 0.040190853 0.07753719
000030 20 1a 3a 3c 40 7e 8d bd 67 1e 9d bd 6a e2 9a bd
       0.011358768 -0.06908846 -0.076718144 -0.07562716
000040 9b 67 ac bc 2a 73 ca bc 47 f2 e4 3c 7d d1 5e bc
       -0.021045497 -0.024713118 0.027947558 -0.013599751
000050 8d 26 97 3c 7d 66 95 bd a8 29 40 bd 8c de 8a bb
       0.018451 -0.07294939 -0.046914726 -0.0042379554
000060 3c 5c 9e bd a8 3f 14 3b 7b ce 34 3d 7e 40 9e bd
       -0.07732436 0.002262095 0.044142228 -0.07727145
000070 4f 07 93 3d df 49 39 3d c1 3f 40 bd 62 9c 44 bb
       0.071791284 0.045236465 -0.0469358 -0.0030000438
000080 8b 3f 11 bd 2d 2d 0a 3d e7 f4 96 bd b0 f1 02 3d
       -0.03546099 0.03373449 -0.0737093 0.031968772
000090 e5 d3 89 3d e8 a0 a9 3c 50 82 53 3d f5 58 37 3d
       0.06729869 0.020706609 0.051637948 0.04476257
0000a0 78 a0 92 bd 56 ad b4 3c 26 93 6a bc 24 a2 c8 bc
       -0.07159513 0.02205531 -0.0143173095 -0.024491377
0000b0 5e 3f 9b bd 29 fd d2 3c 53 55 0c 3c e3 85 70 bd
       -0.07580446 0.025755482 0.008565265 -0.058721434
0000c0 0b 6b 39 3d 2e 72 3e bd d1 a4 cc 3c f8 b7 d0 3c
       0.0452681 -0.04649561 0.024980934 0.025478348
0000d0 74 1e d9 bc d8 91 a7 bc c8 30 ee bb 17 ec 99 3d
       -0.026503779 -0.020455286 -0.007268999 0.07515734
0000e0 a9 d4 06 3c f4 11 88 bd db 01 3b 3c 4a 25 2f 3d
       0.008229413 -0.06644049 0.011414017 0.04276017
0000f0 59 0e 92 bd 1c 5e 84 bd 84 7d 3f bc 97 5b 13 bd
       -0.07131643 -0.064632624 -0.01168764 -0.03597602
000100 12 6b 03 3d e3 47 d2 3c ee 0a 9c bd 9a 60 35 3d
       0.032084532 0.025669044 -0.07619272 0.04428158
000110 d3 34 03 bd 80 0e 0b bd 82 fd 4f 3d 30 08 a7 3d
       -0.0320328 -0.033949375 0.050778873 0.081558585
000120 27 24 56 bd f2 57 67 bd 9e 09 34 bc 67 60 bc 3b
       -0.05228057 -0.056480356 -0.010988621 0.0057487967
000130 39 4d 8b 3d 4d 93 19 bd ea 71 52 3b b4 c2 f0 3c
       0.068018384 -0.037493993 0.0032111355 0.029389717
000140 76 51 1d 3c 7e 20 1b bc 82 b3 52 bd 0c 63 4e 3d
       0.009601941 -0.009468196 -0.051440723 0.050387427
000150 2d bc 99 3d 55 b4 76 bd 03 86 37 3c e0 80 d1 3b
       0.07506595 -0.06023057 0.0112013845 0.006393537
000160 5b d8 83 3d 60 6d c9 bc e6 fa 1c bd 8f 20 b8 bb
       0.06437751 -0.024588287 -0.038325213 -0.0056191157
000170 6e 68 bf bc dc 1f 93 3a 26 b6 85 3d e0 5f 30 bd
       -0.023365226 0.0011224705 0.06528883 -0.043060184
000180 a9 33 14 3c aa 9d 15 3d e1 32 1f bd 0d 4b 92 3d
       0.00904552 0.036527313 -0.03886688 0.07143221
000190 de c9 64 3d 83 7a 14 bd 02 2e 93 3d 26 a2 e6 3b
       0.055856578 -0.03624965 0.0718651 0.0070383726
0001a0 76 0d 8b bd f2 4d 43 bd f5 63 30 3d 1f 5b 29 bc
       -0.06789677 -0.047681756 0.043064076 -0.010336666
0001b0 e2 36 57 3d 5d 6d 95 3d c0 c4 29 bd a3 cc 9f 3c
       0.052542575 0.0729625 -0.0414474 0.019506758
0001c0 8a 08 08 bd 72 39 87 3c 16 f3 f1 bc b1 ea 46 3b
       -0.03321127 0.016506884 -0.029534858 0.003035229
0001d0 64 cf 95 bc f1 f5 99 bd 0b e6 2d bd aa 49 57 3c
       -0.018287368 -0.07517613 -0.042455714 0.0131401215
0001e0 a7 a8 51 bd 14 66 88 bd bd 34 a1 bd 5c ae 9b 3d
       -0.05118623 -0.06660095 -0.07871387 0.07601616
0001f0 79 13 01 3c b8 87 a0 3c 69 72 26 bc 77 97 39 bd
       0.007878178 0.019595966 -0.010159113 -0.045310464
000200 b1 d3 91 bd eb 57 75 3d 6e 56 2e 3d 3b 6c 80 bd
       -0.07120455 0.0598983 0.042562895 -0.06270643
000210 5a 25 fa 3c 46 f1 9d bd 67 2b 30 bd 47 45 0a 3d
       0.030535389 -0.07712035 -0.04301014 0.033757474
000220 b2 ed 55 bc 62 bc f3 bc cb ae 1f bd 9f 55 23 bd
       -0.013057159 -0.029752914 -0.038985055 -0.039876577
000230 46 ae 83 bd 94 53 2a bd 3e ed 5c 3d b3 76 7d bd
       -0.064297244 -0.041583613 0.05393719 -0.06188078
000240 e9 1b 99 bd 81 2e 2f 3d 36 05 a2 bc d7 fe b0 3c
       -0.074760266 0.04276896 -0.019777875 0.021605892
000250 8c 64 0a bd 76 3e 03 bd a1 b2 b0 bc c8 d3 b1 3d
       -0.033787295 -0.03204199 -0.021569552 0.08682972
000260 3c c2 dc bb 40 9b 57 bc 52 2b 20 bd 77 ff c8 3d
       -0.0067370217 -0.013159573 -0.039103813 0.09814351
000270 05 07 bb ba b9 cf 65 3d 19 ee e1 3c 96 25 91 bd
       -0.001426906 0.056106303 0.027579354 -0.07087247
000280 c8 43 d7 bc af f9 d5 3d f1 13 5a 3d 57 e1 7e 3d
       -0.026277438 0.10448014 0.053241674 0.06222662
000290 6d 46 1e 3d 92 b9 d1 3d ed 74 bb 3d 7a 6f 80 3d
       0.038641382 0.10240473 0.09153161 0.062712625
0002a0 35 17 d9 bc 8e f8 5a bd 15 49 d1 3c fa 9a 21 3d
       -0.026500324 -0.053459696 0.025547544 0.039454438
0002b0 c4 da ca 3d 15 52 fc 3c 05 76 a8 3c f1 49 bb bb
       0.099050075 0.030800859 0.020564089 -0.0057156016
0002c0 7d 39 95 bd e3 6e 7d 3c e9 9e b2 bd 0a 51 2e 3b
       -0.07286356 0.015468332 -0.08721716 0.0026598596
0002d0 91 2c 71 bd 66 2a f9 3c 5b 7e 10 bc 6d e2 93 bd
       -0.058880392 0.030415725 -0.008819188 -0.07220922
0002e0 a3 ca 5f bd a8 91 ab 3c 65 62 73 bd b1 36 05 3c
       -0.05463661 0.020943478 -0.05942001 0.008130715
0002f0 0c b6 af 3d d0 f9 86 3d 01 24 ca bc 17 e2 2e bd
       0.085796446 0.06590617 -0.024675371 -0.042696085
000300 6a 58 2f 3d e4 86 06 3d b4 8c 7b bd ec 09 c4 3b
       0.042808928 0.032843485 -0.06141348 0.005982628
000310 e5 b2 7a 3c c2 e8 79 bd 9c 44 ea 3c 1c b3 1c 3d
       0.015301441 -0.06101299 0.028597169 0.03825675
000320 09 2f 60 bd 92 81 b9 bd f7 91 93 bd e8 62 54 3c
       -0.054732356 -0.09057917 -0.07205575 0.012963034
000330 e8 b7 56 3d 1b 9b 97 bd 13 65 03 3c e3 74 bb bd
       0.05242148 -0.07402631 0.008019703 -0.09153154
000340 96 fe ae bc bf 9b c3 3d 07 1a 05 3c 55 5f 11 3d
       -0.02136163 0.095511906 0.008123881 0.035491306
000350 69 25 9e 3c 43 2e 57 3c e8 b8 aa 3d a4 c6 a2 bd
       0.019304948 0.013133588 0.08336049 -0.07948044
000360 ad 00 a7 bc 92 d3 3a bd 4d d5 20 3d 67 a1 ca 3c
       -0.020386064 -0.045611925 0.03926592 0.024735166
000370 ca 51 6a bd 00 34 2a bd cc 6f 8b 3d 58 f0 dc bc
       -0.057206906 -0.041553497 0.06808433 -0.026970074
000380 f4 0a 53 3c a4 f0 b1 bd 42 d0 8f bc 23 73 27 bd
       0.012881029 -0.08688477 -0.01755536 -0.040881287
000390 25 47 6d 3c ad 82 2f 3d e9 13 33 3d 9d 24 69 3d
       0.014482294 0.04284923 0.04372016 0.056919683
0003a0 8c a0 1f bd ad 8f 0c bd d9 ea 25 bd a2 22 87 bd
       -0.03897147 -0.034316707 -0.04050717 -0.065984026
0003b0 ed 91 bb bd 3b 9a 61 3d 48 bd 22 bd 62 a6 6a bd
       -0.091586925 0.055078726 -0.039731294 -0.05728758
0003c0 5d 1c 73 3d af 49 9d bb 90 ba 78 3d a9 c2 a3 3d
       0.05935322 -0.0048000435 0.060724795 0.07996113
0003d0 12 e3 9c 3d 45 b5 70 bd d5 eb 7e bb 0a a2 b3 bc
       0.07660498 -0.058766622 -0.003889789 -0.021927852
0003e0 e0 1e 29 3d 52 fa 8e 3d ed b8 ac 3d 5e 73 84 bd
       0.04128921 0.069813386 0.08433709 -0.06467317
0003f0 d3 09 18 3d 70 85 dc 3c a2 2b ea 3c 56 0c 96 3d
       0.037118744 0.026919097 0.028585259 0.07326572

conv2.bias f4 [16]
000000 53 5d 29 3d 8e 84 7d 3c 30 ee fe 3d ca 6b c0 3d
       0.041348767 0.015473498 0.124477744 0.09395559
000010 4c 60 e2 3b f1 ab bb 3d 52 d5 9e 3b 9a b0 23 3e
       0.006908452 0.091636546 0.004847207 0.15985337
000020 6f 7b 6e 3d 89 84 d0 3d 47 44 1f bd 80 39 82 3a
       0.058223184 0.10181529 -0.038883474 0.0009935349
000030 7b 15 4b bd 30 ba 07 3b 94 ff e8 3d 6b 71 90 39
       -0.049581032 0.0020710342 0.11376873 0.00027550323

fc1.weight f4 [128, 400]
000000 d3 f0 25 3c 3d f4 01 bd f3 c7 fb bb 3b 26 df 3c
       0.010128218 -0.031727064 -0.007683748 0.02723991
000010 6c c5 ad bc 24 22 ba 3c 5a 23 03 3d bd 3b 9f bc
       -0.021212302 0.022721358 0.032016136 -0.019437665
000020 81 6f 32 bd 89 d0 7c bb 46 12 33 3d 34 b0 0d bd
       -0.04356337 -0.0038576445 0.0437186 -0.03459187
000030 31 ae f6 3c a4 f8 45 bd 89 df 08 bd 70 ea 3e 3d
       0.030112358 -0.048332825 -0.033416305 0.046610296
000040 d7 d6 86 bb 3b 60 23 3d 85 11 27 3d 19 b1 d5 3c
       -0.0041149664 0.039886694 0.040788192 0.026085423
000050 c2 5c 76 3c 40 4c 1a bd 96 24 2e bd 82 9a 33 3c
       0.015036764 -0.037670374 -0.04251536 0.0109621305
000060 5b e2 3a bd 2e 4c 3e bd 8d 7d e7 bc 9c 5b 25 bd
       -0.045626026 -0.04645937 -0.02825811 -0.04037057
000070 09 5e 6f 3c e5 3a f0 3c 89 bb 2d 3d 62 7d 78 3c
       0.014609822 0.029324958 0.042415176 0.015166612
000080 47 6c b5 bc a7 83 2f 3d b9 d2 ec bb 60 95 de bc
       -0.022146357 0.042850163 -0.0072272685 -0.027170837
000090 54 9f 3b bc 50 ec 9f bc 2c 4e f6 3c b3 48 1d 3d
       -0.011451561 -0.019521862 0.030066572 0.03839941
0000a0 ef f9 9a 3c 05 c5 2c bd 8e 47 b3 3c 54 db ba 3c
       0.018918006 -0.04218008 0.021884706 0.022809662
0000b0 86 f5 ae 3a 3f a3 0b bb f7 39 0f 3b 40 f4 af bb
       0.0013348318 -0.002130702 0.0021854618 -0.005369693
0000c0 c0 af 3a bc af a2 67 3c cc 25 4d bd 31 2a 4a 3c
       -0.011394441 0.014137908 -0.050084874 0.012339161
0000d0 15 69 8f bc 99 59 7f bc d3 3b 2e 3c e0 a1 61 3c
       -0.017506162 -0.015585327 0.01063438 0.013771504
0000e0 90 4c 28 3d 59 6d 56 bb fc c3 2a 3d 5f d5 29 3d
       0.04108864 -0.0032718985 0.04169081 0.041463252
0000f0 e6 4b 7d bb b9 e3 00 bd d7 82 2e 3d b3 1f 21 bd
       -0.0038649975 -0.031467173 0.042605247 -0.03933687
000100 f9 a5 d8 3c 8f eb 61 3c 91 9f 2b 3d e4 68 48 bd
       0.02644633 0.013789072 0.04190022 -0.048928156
000110 c6 02 87 3c b4 c7 d6 3a ee 29 00 3d 66 62 9f 3c
       0.016480815 0.001638642 0.031289987 0.0194561
000120 90 51 c4 bc 8d e7 8a bc 94 c4 30 3d 33 83 aa bc
       -0.023964673 -0.016956115 0.04315622 -0.020814514
000130 b0 0c 14 3d fe 54 90 bc 86 50 db bb 25 0b 4e 3d
       0.036144912 -0.017618652 -0.0066929488 0.050303597
000140 7a 6f d5 bc c3 bd 60 bc 09 fb 66 3c c8 99 e8 bc
       -0.026054133 -0.013717118 0.014097937 -0.028393641
000150 db 7a d2 3b 22 3b 04 bd a9 04 44 3d 45 da 30 bd
       0.006423337 -0.032282956 0.047856007 -0.043176908
000160 cd 6f 9c bc 82 c5 a0 3c c9 e2 3a bd 8c 13 db ba
       -0.01909628 0.019625429 -0.045626435 -0.00167142
000170 bb 1e 41 bd 89 e3 25 3b 30 93 ab bc a1 62 3f 3d
       -0.047148447 0.0025312623 -0.020944208 0.04672492
000180 54 dd 24 bd 7f 45 ca bb 91 2f 86 bc 47 4c eb 3b
       -0.040250137 -0.0061728354 -0.016380103 0.007180724
000190 3e be 08 3d 51 e6 fc bc 02 a8 8f 3c 05 0f 21 3d
       0.033384554 -0.030871542 0.017536167 0.039320964
0001a0 91 7d 1a 3d 4d c4 3a 3d 03 16 5d 3b 2b 14 4a 3d
       0.037717406 0.045597363 0.0033735044 0.04933564
0001b0 e1 5a 07 3d 06 34 92 b9 71 20 4c bd 17 56 1d bd
       0.033045653 -0.0002788605 -0.049835626 -0.03841218
0001c0 62 7d a2 3c d0 8f 93 3a e6 28 f6 bc 55 af 0c bc
       0.019835178 0.001125807 -0.030048799 -0.008586724
0001d0 54 64 82 bc 47 0b c4 bc b3 ac e8 3c ee c6 27 bd
       -0.01591698 -0.023931159 0.028402662 -0.0409612
0001e0 8c 51 2a bc 85 d8 5c 3b 5f 7a 1d bd 75 44 e5 bb
       -0.010395419 0.0033698392 -0.03844678 -0.006996686
0001f0 b1 19 45 3d 8d ec 40 bd 91 ca e3 bc 44 81 06 3c
       0.048120204 -0.047100592 -0.027806552 0.00820953
000200 80 89 24 3d b0 08 19 3c 2d a4 0e 3c d2 84 9b 3c
       0.040170193 0.00934045 0.008706135 0.018984232
000210 59 90 40 bd cf 48 11 bd a5 5a 85 3c 30 5b 30 bd
       -0.04701266 -0.035469826 0.016278574 -0.043055713
000220 52 28 81 3c 53 68 cc bc ed e7 93 3c 1c 31 ed 3b
       0.015766297 -0.02495209 0.018054927 0.0072385203
000230 f2 42 e4 bb 68 ae 1b bd 36 c3 9a bc 02 f4 1c 3d
       -0.0069659883 -0.038008124 -0.018891912 0.03831864
000240 9d 03 54 bc 63 ae a7 bc 3f 83 b0 bb 40 0d 25 bd
       -0.012940315 -0.020468896 -0.0053867395 -0.04029584
000250 03 59 2d 3b d8 bf 17 3d e6 a8 39 3d b4 42 46 bd
       0.002645076 0.03704819 0.04532709 -0.048403457
000260 5d d3 23 3b 6f 33 98 bb d5 a1 80 bb 9f b8 d8 bc
       0.0024997809 -0.0046448032 -0.003925542 -0.026455222
000270 01 51 e6 3b 86 b4 0d bd 06 70 39 3d a9 d7 2c bd
       0.0070286994 -0.03459599 0.04527285 -0.042197857
000280 55 9c 9d 3b 39 ab 76 bc 11 b4 44 3d 39 7b b6 bc
       0.004809896 -0.015055471 0.048023287 -0.022275554
000290 5f 27 88 3c 93 4f 5b 3c a0 0f 00 3d 93 00 16 3c
       0.016620336 0.013385671 0.0312649 0.00915541
0002a0 a9 a5 2b 3b 46 9c 8a bc 94 99 23 3d a3 00 b3 3c
       0.002619127 -0.01692022 0.039941385 0.02185089
0002b0 16 a3 09 3d 0a 24 20 bd 72 60 a0 bc 9c 59 80 bc
       0.033602796 -0.03909687 -0.019577239 -0.01566773
0002c0 4a ab 08 3d 32 b1 cf bc 5e c9 17 3d ff 46 b2 bc
       0.03336648 -0.025353048 0.037057273 -0.02176237
0002d0 f2 19 a7 bc 69 79 57 bb b0 f5 af 3a 7f d9 9f 3c
       -0.020398114 -0.0032878763 0.0013424661 0.01951289
0002e0 db 10 3f 3d d9 a5 ec 3c 93 77 ce 3c b8 89 88 3b
       0.046646934 0.028887676 0.025203502 0.004166808
0002f0 8d f1 2e 3c 8b d4 f8 3c 67 58 2b bb 85 00 c5 3c
       0.010677707 0.030374786 -0.0026145221 0.0240481
000300 91 d4 1e 3d 7e 4d 84 bc 5b fe 89 bc 47 3d 24 3d
       0.038776938 -0.016150232 -0.016844919 0.0400975
000310 08 f3 a6 bc ce a7 a6 3c ef fd 00 3c b6 8b 53 bc
       -0.020379558 0.020343687 0.0078730425 -0.012911728
000320 85 95 37 bd 57 25 b8 bc a6 aa 3b bd 42 3a 31 bc
       -0.044820327 -0.022478743 -0.04581704 -0.010817112
000330 9f 17 2b 3d 87 e1 e3 bc d5 91 3f bd 6d 00 b2 3c
       0.041770574 -0.0278175 -0.046769936 0.021728719
000340 04 9d c9 3b 31 d0 cf 3c 3d 6e f4 3c da af 91 bb
       0.006152751 0.025367828 0.029837722 -0.004446012
000350 a0 0a 2b 3c cf 14 b1 3c 42 bc 40 3d f8 82 d6 3c
       0.010439545 0.021616368 0.047054537 0.026185498
000360 07 f4 2e 3c a3 51 51 bc 74 cd 1e bd dc 04 39 bb
       0.010678298 -0.012775811 -0.038770154 -0.0028231656
000370 18 c6 28 bd de 1e f5 bb e5 ea 47 3d 1a 67 9e bc
       -0.041204542 -0.0074804863 0.048807997 -0.019336272
000380 16 37 6a 3c 8f 90 31 3d df 27 ed 3c d6 57 17 bd
       0.01429536 0.043350752 0.028949676 -0.036949
000390 9b d0 3c 3b 21 aa 2a bd fe 8c 2f bc 1f f9 8e bb
       0.0028810862 -0.041666154 -0.0107147675 -0.0043631936
0003a0 57 06 04 bc 98 ba 21 bd 19 ad b7 bc 55 66 70 3c
       -0.008058152 -0.03948459 -0.022421407 0.014672835
0003b0 7a ac cf 3c a5 98 90 bc d6 16 7b bc 65 54 c0 bc
       0.025350798 -0.017650912 -0.015325269 -0.023477742
0003c0 c3 6c 05 bd 56 aa 4a bd 97 e4 48 bd 3f ea c5 bc
       -0.032574426 -0.04947885 -0.049046125 -0.024159549
0003d0 67 3e c3 bc 0b 62 54 bc c8 40 cc bc 84 bb 97 bc
       -0.023833467 -0.012962828 -0.024933234 -0.018522032
0003e0 d6 5b cc bc f8 03 3d 3c 78 81 2a bd 5f 88 b6 3c
       -0.024946135 0.011536591 -0.041627377 0.022281824
0003f0 66 09 0e bd 09 e6 24 bd 38 1f 1a bd a4 4b 2c bd
       -0.03467693 -0.04025844 -0.03762743 -0.042064324

fc1.bias f4 [128]
000000 87 55 16 bd 6d 6d 3a 3d f8 b3 e3 3b 34 ce 9d 3a
       -0.03670266 0.045514513 0.006948944 0.0012039603
000010 81 c3 50 bd 21 c1 84 bc d6 cf 23 3d ae f4 d5 3c
       -0.050967697 -0.016205372 0.03999313 0.026117649
000020 2c b0 ec 3b ce e5 3d 3c 07 35 7c 3c 2a 06 04 bd
       0.0072231498 0.011590434 0.015393502 -0.03223244
000030 f1 c2 b5 3c 90 f4 74 3c 17 65 57 3c 8f b4 9a bc
       0.022187682 0.014950886 0.01314666 -0.018884925
000040 94 54 03 3d 82 18 bd bc cd 51 84 bc fb ed b1 bc
       0.03206308 -0.023082975 -0.016152287 -0.021719923
000050 8e c5 0d bd 38 53 07 3c 13 70 bb bc da b6 9d bc
       -0.03461223 0.008259587 -0.02288059 -0.01925223
000060 4b cf 5b 3c 50 6a e6 3c b7 82 3d bc 43 2e 1f 3d
       0.013416122 0.028126866 -0.011566809 0.038862478
000070 b2 70 10 3d 80 9b fc bc 78 1f 10 bc 3d 85 1b 3d
       0.035263725 -0.030835867 -0.008796565 0.037968863
000080 7c 42 fc bb 55 f9 0a bd 8f 11 15 bd 99 cb 98 3c
       -0.0076983552 -0.033929188 -0.0363937 0.01865177
000090 87 3e db ba b7 9d 42 bd a2 a4 8e 3b 74 21 de 3c
       -0.0016727009 -0.04751369 0.004353122 0.027115561
0000a0 ad 1d 4b bd 1d 3b 1e 3b 0f a5 35 bd 80 ad da bc
       -0.049588848 0.002414412 -0.044346865 -0.02669406
0000b0 97 e7 9c bc 56 f7 b2 bc 9a 58 89 3c 2a 55 57 bc
       -0.0191534 -0.021846455 0.016765881 -0.013142863
0000c0 72 c0 1f bd 46 ef da 3c 4c 88 27 3d 74 d6 bb 3c
       -0.03900189 0.026725423 0.040901467 0.022929408
0000d0 f8 7a 1c 3d 3b 58 5c 3c b2 0c 00 bd a4 88 ac bc
       0.03820321 0.01344877 -0.031262107 -0.02106125
0000e0 7c 56 da 3b cf 48 33 bd 84 26 3b 3d 90 d8 28 3d
       0.006663142 -0.043770608 0.04569103 0.041222155
0000f0 4d 3b a0 bc c6 c4 28 bd 71 cb b5 3b 80 60 2c bd
       -0.019559527 -0.041203283 0.0055479337 -0.042084217
000100 5a 68 0e 3c 8e 4e bf bc f4 35 9e 3b 3f 31 2d 3d
       0.008691872 -0.023352887 0.004828209 0.042283293
000110 c6 17 d9 38 61 e0 4b bd 98 a4 be 3c 12 f2 3b bc
       0.000103517945 -0.04977453 0.023271844 -0.011471288
000120 97 fb 16 bd 9a 02 12 bd 3c 7d 78 3c 16 45 c5 3c
       -0.03686103 -0.035647012 0.015166577 0.024080794
000130 0b 8b 8a 3c 9d 54 0e bd 8e a3 14 bd cb 5b ed bc
       0.016912004 -0.034748662 -0.03628879 -0.028974434
000140 a4 f3 70 3d 0b e4 65 bc 5e f9 37 3c f7 4b 91 3c
       0.058826104 -0.01403142 0.011228887 0.017736418
000150 91 02 f2 bc eb 38 37 bd 32 93 0f bd 87 f5 51 3d
       -0.02954224 -0.044732016 -0.035052486 0.051259544
000160 b3 fb 56 3c df ea 42 bd 93 10 d0 bb 64 1b 98 bc
       0.013121533 -0.04758727 -0.006349632 -0.018567748
000170 bf 3e 29 3d 46 ae 25 bd cb 00 3f bd 0f fc 72 3c
       0.041319605 -0.040449403 -0.046631616 0.014830603
000180 d2 ec 9e bc 71 58 a2 bb f2 c0 05 bc d8 bc 43 3d
       -0.019400034 -0.0049543907 -0.0081636775 0.047787517
000190 e2 60 d8 bb 39 04 2d bc 99 03 03 bd 1d 33 0c 3d
       -0.006603346 -0.010560089 -0.031985853 0.034228433
0001a0 66 40 4c 3c 68 ee 20 bd 00 d9 38 3d e8 58 03 bd
       0.012466526 -0.039289862 0.045128822 -0.03206721
0001b0 81 07 8a bc 67 e9 35 3d cd 6b e3 bc ea 79 24 3d
       -0.016849281 0.044412043 -0.027761364 0.04015533
0001c0 c3 60 e9 bc 1f 89 89 3c 6e df 71 bb 67 29 2c 3d
       -0.028488522 0.016789017 -0.0036906856 0.04203167
0001d0 c9 b3 1b 3d a3 ae dd bb 70 21 39 3c 6e a3 d8 3a
       0.038013253 -0.006765203 0.011299476 0.0016528198
0001e0 10 4c 2f 3a da b7 f0 3c 01 23 db bc 04 f8 d1 3c
       0.00066870544 0.029384542 -0.02675009 0.025630958
0001f0 ba 54 28 3d 2a 2a 39 3d a6 c1 32 bd 06 ef 3c 3c
       0.041096427 0.045206226 -0.04364171 0.011531597

fc2.weight f4 [64, 128]
000000 78 ae 0f bd 17 79 82 3d 65 38 b0 bd cb 2f 54 bd
       -0.035078496 0.06370752 -0.086045064 -0.05180339
000010 82 c3 23 bc e8 69 72 ba cb 43 5c 3d 0b 85 90 bd
       -0.009995343 -0.00092473486 0.05377559 -0.07056626
000020 39 bf 93 3d 0c 6b 7e bb ce 78 1b bd 46 75 76 3c
       0.07214207 -0.003882113 -0.037957005 0.015042609
000030 72 83 92 3d b8 82 5e 3c 95 1a b2 bc 2d 52 aa 3d
       0.071539775 0.0135809705 -0.02174119 0.08316455
000040 ce 83 4a bc 03 b2 8d 3d 07 64 99 bd 9d 2c db bc
       -0.012360526 0.06918719 -0.07489782 -0.026754672
000050 87 f2 90 bd 51 9e b7 3c a4 48 19 bd 3d 4e aa 3d
       -0.070775084 0.022414358 -0.03742279 0.08315704
000060 f6 a8 5f ba 48 75 25 3c bb 4b e9 3c 01 9f 36 3d
       -0.0008531952 0.010098763 0.028478494 0.04458523
000070 dc 87 a4 3d de c5 08 bd fc b6 5e bd 78 70 85 bd
       0.080337256 -0.033391826 -0.054373726 -0.06515592
000080 10 09 33 3d f0 f0 d1 3d 45 f8 be bc f9 3f 79 3d
       0.043709815 0.10251033 -0.023311744 0.060852025
000090 37 23 ad 3d 54 c6 b0 3c d4 4a 64 bd 11 b1 8b 3d
       0.08453982 0.021578945 -0.055735424 0.06820882
0000a0 cb 35 6e 3d 41 6d 23 bd ba aa b8 bc cb df 02 3d
       0.05815677 -0.039899115 -0.022542346 0.031951707
0000b0 39 b6 ac 3d 64 f8 42 bd ad 0d 81 3d fa 69 44 bb
       0.08433194 -0.047600165 0.063014366 -0.0029970394
0000c0 7e c7 a1 3b 8c 33 9c 3d f2 26 4b 3c e8 43 e5 3b
       0.0049371114 0.07627019 0.012399422 0.0069966204
0000d0 34 cd 31 3d d7 56 7f bc 55 81 a5 3d 44 b1 8d 3c
       0.043408588 -0.015584669 0.08081309 0.01729644
0000e0 00 fe 68 bd f8 7d 0c bd f5 98 59 3d ce b5 8b bd
       -0.05688286 -0.03429982 0.053124387 -0.06821786
0000f0 07 08 1e bd b2 fd 0d bd de b5 64 3d 63 ae 2e bb
       -0.038581874 -0.03466577 0.055837505 -0.0026654236
000100 f8 b4 a7 bd a4 cc 3a bb b8 4b 97 3c 7a 27 aa bd
       -0.08188814 -0.0028503323 0.018468723 -0.08308311
000110 c2 39 c7 bc 54 42 82 3d 93 90 b7 3c 27 25 91 bd
       -0.024319533 0.06360307 0.022407806 -0.07087164
000120 2e 05 39 3d bb 91 4f 3d 52 8a 60 bd 52 e8 4e bb
       0.045170955 0.05067609 -0.054819413 -0.003157158
000130 34 e1 81 bd 12 42 a4 bd f1 5d 46 bd 3f 2e 2c bd
       -0.06341782 -0.080204144 -0.048429433 -0.04203629
000140 1d 55 d8 3d a4 29 95 3d 94 c7 c8 3d 2c 4c 40 bd
       0.10563109 0.07283333 0.098036915 -0.046947643
000150 ca 63 a4 bd 35 62 65 bd a8 86 85 3d d6 77 fc 3c
       -0.08026846 -0.05600186 0.06519824 0.030818861
000160 0b c1 8f bc 97 83 ba 3c b6 ec 34 bc 14 95 37 bc
       -0.017548105 0.022767825 -0.011042764 -0.011204977
000170 11 b1 ce 3c fe aa 9e bd 04 00 9c 3c 68 fa 5f 3d
       0.025230916 -0.07747458 0.019042976 0.054682165
000180 09 d1 68 3d 69 56 22 bd 8a 51 8e bc 1f 9c 92 bc
       0.056839976 -0.03963319 -0.017372865 -0.01789671
000190 b6 07 8c bd 49 67 f0 ba 2c bf 08 bd 3d 72 12 bd
       -0.06837408 -0.0018341328 -0.03338544 -0.035753477
0001a0 de b5 28 3d db f4 b0 3d d3 9d dd bc 4f ef a1 3d
       0.041189067 0.086404525 -0.027052796 0.079069726
0001b0 a1 fe 86 bd 5a 67 ab bc 34 b8 47 bd c0 80 49 3d
       -0.06591535 -0.020923305 -0.048759654 0.04919505
0001c0 40 aa fb bb 1b 2a 2e 3c bb 44 a9 bd 77 11 c2 3d
       -0.0076802075 0.010630156 -0.082650624 0.094759874
0001d0 a5 7b b8 3d 52 85 51 3d 2a 05 df bc 03 fe 23 bd
       0.09007958 0.051152535 -0.027224142 -0.040037166
0001e0 3e 85 eb 3c 2f 07 aa 3c 9c 8e 69 3c 44 70 c0 bc
       0.028750058 0.020755379 0.014255192 -0.023491032
0001f0 e6 f7 55 bd 2f 30 72 3d ee d7 35 bd 94 d4 6b 3d
       -0.052238367 0.059127983 -0.04439538 0.057575777
000200 40 48 6c 3c b6 3d 24 bd 7c da 3e 3d 31 36 33 3c
       0.014421523 -0.040097915 0.04659508 0.010938213
000210 12 58 55 bd 53 b1 d8 bc 87 66 ee bc 67 25 85 3d
       -0.052085944 -0.026451742 -0.029101623 0.065012746
000220 e9 cd 48 3c ed 43 b6 3d 22 d3 8c 3b cc b8 82 3d
       0.012256124 0.088996746 0.00429763 0.063829035
000230 c2 ad 9d 3d 39 a2 18 bd d9 ba 59 bd 86 20 fb 3a
       0.07699157 -0.037264083 -0.053156707 0.0019159473
000240 d3 f8 76 3d 0b 69 57 bd 10 ff 96 3d 60 d2 68 bc
       0.06029589 -0.05259041 0.07372868 -0.014210314
000250 ce 7e d7 bc 5e 47 a9 bd 8c 02 b2 3c 60 df 75 3d
       -0.026305582 -0.08265565 0.02172973 0.06002748
000260 f5 b4 2d 3d 1c 7c 3d 3d 36 f0 81 3c b1 aa 39 bc
       0.042408902 0.046260938 0.015861612 -0.0113322
000270 be 4a f5 bc 0a bd 7c 3d 45 ac 11 3d 14 90 f7 b8
       -0.029942866 0.06170372 0.03556468 -0.000118047144
000280 06 6e a3 bd 45 70 b9 3d 1e ba 6c bc 15 69 6e 3d
       -0.0797997 0.09054617 -0.014448671 0.058205683
000290 ae 66 a9 3d af 81 3f bd 58 3a b6 3d 62 49 87 3d
       0.08271538 -0.046754535 0.08897847 0.066057935
0002a0 fb dc 40 bd 01 9a 55 3d 78 4b 75 3c 1b e2 3d bd
       -0.047085743 0.052148823 0.014971606 -0.04635821
0002b0 d0 48 e4 3c 4f 37 33 3c e0 64 90 bd d0 64 4c bb
       0.027866751 0.01093848 -0.070504904 -0.0031188019
0002c0 d2 41 64 3d e6 bf 96 bd be a4 16 bb 95 f5 31 bc
       0.055726834 -0.073608205 -0.0022986378 -0.010861774
0002d0 69 f2 63 3d 82 7d b2 bd eb bc 2c 3c 0f 9a 5a 3b
       0.055651102 -0.08715345 0.010543088 0.0033355986
0002e0 fc 03 92 3d 7c 61 ba 3d 80 66 63 3d 19 96 fe 3c
       0.07129666 0.09100625 0.055517673 0.031077432
0002f0 8d c2 a9 3d b2 e8 54 bc d1 01 85 3d bf 80 8a 3c
       0.08289061 -0.012994932 0.06494487 0.016907094
000300 0b 37 73 bc f3 ca 9f 3c 69 dc 3a bd 6f fe 12 bd
       -0.014844666 0.019505953 -0.045620356 -0.035887178
000310 ef 02 77 3d e3 98 9f 3c 20 3d 18 bd b6 f0 16 3d
       0.060305532 0.019482082 -0.03716767 0.036850654
000320 a4 74 20 3c 03 23 a9 ba 6d 61 aa 3d d0 0c 9a bd
       0.009793434 -0.0012904111 0.08319364 -0.07521975
000330 fe cc 71 bd 87 0e b0 3d 25 8e 4e bd 97 f3 2e bd
       -0.059033386 0.08596521 -0.05042853 -0.042712774
000340 69 f9 ed 3c df 44 c6 3d 1f b1 d0 3d 59 73 a9 3c
       0.029049592 0.09681105 0.10190033 0.020684885
000350 6d 1d 15 3d a1 1e 83 bd a6 ce e1 bc c8 46 05 3d
       0.036405016 -0.064023264 -0.027564358 0.032538205
000360 96 4a 14 bd 0a 3c d4 bc ec 7c 65 bd 8a 48 2b 3d
       -0.036203943 -0.025907535 -0.056027338 0.041817226
000370 4a 0c 1f bd f3 09 72 3d 2c b9 8e 3c cd c0 39 bd
       -0.03883008 0.05909152 0.017422281 -0.045349885
000380 7a 6e 3f bd 2e 26 23 bc 24 b7 bd 3c 1d 2f 35 3d
       -0.046736218 -0.009957833 0.023158617 0.044234384
000390 a5 a9 9c 3d 8e 05 1d 3d af 4a 93 bd 02 a0 31 bd
       0.076495446 0.038335375 -0.07191979 -0.043365486
0003a0 18 2b 10 bd 23 c7 35 3d 2d 21 93 3d 62 eb ad bc
       -0.035197347 0.044379365 0.07184062 -0.021230403
0003b0 42 d5 d3 bb 5b a8 0e bd 5e 24 84 bd a6 cd 1c 3d
       -0.0064646313 -0.034828525 -0.06452249 0.03828206
0003c0 4c 89 ab bd 65 6d ef bc ed 45 8f bd 1a 88 e8 3c
       -0.08375797 -0.029226968 -0.06995759 0.02838521
0003d0 c0 ca 2c bc 74 fb 46 3d 96 2f 0a bd 29 38 c9 bd
       -0.010546386 0.048579648 -0.033736788 -0.09825165
0003e0 f0 a0 0a 3d d3 ca f2 3c e3 d9 53 3d 21 53 9a 3d
       0.03384489 0.02963773 0.051721465 0.07535387
0003f0 97 9f 9a 3d d6 75 5b 3d 8d 96 a8 bc 39 28 86 3d
       0.075499706 0.053579174 -0.0205796 0.065506406

fc2.bias f4 [64]
000000 5a 15 95 bd e2 11 6f 3c 85 f6 09 37 4a 95 cf 3c
       -0.07279463 0.014591666 8.223234e-06 0.025339741
000010 76 e0 49 3d 70 a2 d7 3d 6a 6a c3 3d 90 fe a7 bd
       0.04928633 0.10529029 0.09541781 -0.08202851
000020 36 cc 58 3a b4 68 2a bd 83 21 9a 3c d7 59 99 3d
       0.0008270176 -0.04160376 0.018814808 0.07487839
000030 15 88 06 bd 67 bd d3 3d d7 73 a4 3d bb 20 be 3c
       -0.03284462 0.1033886 0.08029907 0.023208966
000040 22 5c 5b bd 1c 56 bf 3d 9a 83 31 bc d7 50 87 bc
       -0.05355466 0.09342596 -0.010834599 -0.01651804
000050 65 27 b4 bd 14 17 63 3d 10 fe 74 3d 1d 3c db bc
       -0.087965764 0.05544193 0.059812605 -0.026762063
000060 af ca 5f 3d 25 fc 8d 3d 23 f1 e2 3d ad 64 cc 3d
       0.054636654 0.069328584 0.110811494 0.0998014
000070 81 30 a6 bd 89 aa ab 3d bc f3 99 3d 60 1a 59 bd
       -0.0811472 0.083821364 0.07517192 -0.05300367
000080 8d 8b 86 3d 4b 06 5a bd d4 20 4b bd dd f0 af 3d
       0.06569586 -0.053228658 -0.049591854 0.08590863
000090 dd 0e 9c bd 71 1c a5 3d c5 37 8e bd c0 a6 99 3d
       -0.076200224 0.080620654 -0.06944231 0.07502508
0000a0 28 e6 51 3c 1e 1d b4 bc 7e 1d 35 3d cc 92 5a bd
       0.012811221 -0.02198654 0.04421758 -0.053362653
0000b0 b5 96 b1 3d 71 be c9 3d 0a 2c e1 3a 86 ea a0 3d
       0.08671323 0.09850777 0.0017179262 0.07857232
0000c0 8a 95 b1 3d 69 24 07 bd 39 c2 80 bd 0c 64 a3 bc
       0.086711004 -0.032993708 -0.06287045 -0.019945167
0000d0 04 dd b1 3d de 62 28 3d 9a 4a 90 3c 5f 3b 01 3c
       0.086847335 0.041109912 0.017613698 0.00788769
0000e0 3d 95 81 bd a7 6e 5f bd 2a 0b c0 3d 1c 32 14 bd
       -0.06327293 -0.054548886 0.093771294 -0.0361806
0000f0 95 ec 97 3d 1d 16 65 3d 67 c6 91 3c fa d1 c7 3d
       0.07418171 0.055929292 0.0177948 0.09756847

fc3.weight f4 [10, 64]
000000 10 26 ed 3d 44 da 43 3e 9e e7 c2 3d 3f 0b b3 3d
       0.115795255 0.1912623 0.09516834 0.087423794
000010 77 e6 ed bc 5c 40 d1 3d 47 3b 50 be 65 04 ef 3d
       -0.029040558 0.10217354 -0.20335113 0.1167076
000020 f9 5a 1d 3e 6f ed 08 bd 96 b7 de bc e9 9d ce 3d
       0.15366735 -0.03342956 -0.02718715 0.10088713
000030 ac a5 df 3d ac a2 48 bc a0 f6 07 3e 42 6f c7 3d
       0.10920271 -0.012245815 0.13277674 0.097380176
000040 70 bc 08 bd 48 c1 82 bd 4c e4 39 3d b0 0c b1 3d
       -0.033382833 -0.06384522 0.045383736 0.08644998
000050 f0 58 ea 3d a7 3c c4 bc 6b 7e a5 3d fe c2 32 bd
       0.11442745 -0.023954703 0.08080753 -0.04364299
000060 e5 5f 92 3d 97 6b e1 bd c8 36 ea 3d 53 52 0f 3e
       0.07147197 -0.11006849 0.1143623 0.13996248
000070 14 50 36 3c 9d 1c 80 bd f0 8d ed 3d 05 e6 34 3d
       0.011127491 -0.062554576 0.11599338 0.044164676
000080 5e f7 5f be 4b d6 3d be ef 7f 83 bd d2 92 ad bd
       -0.21871707 -0.18538778 -0.06420886 -0.084752694
000090 33 fe 0a 3e f0 43 d5 3c 21 05 ae 3d 50 06 07 3c
       0.13573532 0.026033372 0.08497072 0.008241251
0000a0 54 51 25 3e c0 2c 39 3d cf 7e 1a 3e 77 e5 6d 3d
       0.16144305 0.045208693 0.15087436 0.058080163
0000b0 be 96 6d 3e 30 11 1c be 4b 83 dc 3d 97 85 8b bc
       0.23202035 -0.15240932 0.1076723 -0.017031474
0000c0 43 5f 83 3d 4f 55 c3 bd ef f3 59 bd 64 f1 e3 3d
       0.06414654 -0.09537756 -0.05321115 0.11130026
0000d0 ce 6d a7 bd c6 3d 7a bd 87 99 13 3e 3b 77 08 be
       -0.081752405 -0.061094068 0.14414035 -0.13326733
0000e0 d8 fe 07 bc 0f 81 44 3d 6a 05 a7 3d 00 14 b3 3d
       -0.008300506 0.047974642 0.081553295 0.08744049
0000f0 f7 57 56 be 25 19 a0 3d 3f a5 9c bc 96 51 12 be
       -0.20931993 0.07817296 -0.019121764 -0.14288935
000100 91 5b 5e 3d cd 5a ca bd de 51 81 bd 49 e8 2a be
       0.054286543 -0.098806 -0.06314443 -0.16690172
000110 1c 67 21 bd c0 d5 11 3d 06 18 3d 3c 34 86 c1 3d
       -0.039404973 0.03560424 0.011541372 0.09449425
000120 f4 39 9f 3d 97 f3 11 3d 4f f0 a3 bd a0 2d af 3d
       0.077747256 0.035632696 -0.080048196 0.08553624
000130 7b 06 8f 3d 01 cb 31 be cc d2 25 bd 7d 0f df 3d
       0.06983658 -0.17362596 -0.040484235 0.10891626
000140 18 29 84 bd 08 57 34 bd bb a7 d1 bd cb 58 53 3d
       -0.064531505 -0.044028312 -0.1023707 0.05159835
000150 ef 3e 7c 3c 56 fb f7 bd c3 28 9b 3d c8 e7 97 3d
       0.015395864 -0.121084854 0.07576134 0.07417256
000160 46 f9 c3 3d 64 28 f4 3c cd 6b b0 bd 05 3e 0a 3d
       0.095690295 0.029804416 -0.08614311 0.033750553
000170 2c 8e 99 bc a8 50 d2 bd c1 5c 9b bd b4 75 e2 3d
       -0.01874455 -0.1026929 -0.07586051 0.11057606
000180 19 8e 49 3e c1 70 9b 3b c8 4c 45 3e 0e 32 91 bd
       0.19683112 0.004743666 0.19267571 -0.07089625
000190 f3 12 32 3e 32 1f 07 3e f4 c0 df bd dd c1 a6 3d
       0.17390041 0.13195494 -0.10925475 0.08142445
0001a0 7d 9e 29 bd 58 bf 66 3d 13 c6 d9 bd 4b be 29 3d
       -0.04141091 0.056334823 -0.10633483 0.041441243
0001b0 97 03 ff bd 9a 20 00 3d 5e 48 07 bd a7 d6 0d 3e
       -0.124518566 0.03128109 -0.033028 0.13851415
0001c0 a8 c1 c0 bd 87 0b 4d 3c aa 8d 98 3d 98 eb 94 bc
       -0.09411937 0.012514955 0.07448895 -0.018178746
0001d0 6a c7 53 bd 49 09 c0 3d 75 82 52 3d d4 96 e7 bd
       -0.051703848 0.09376771 0.051393945 -0.11308065
0001e0 b1 b8 7e bd e6 d5 a9 bd f0 5b b6 bd 2b c6 f1 bd
       -0.062187854 -0.08292751 -0.089042544 -0.11805376
0001f0 cf db 22 3e 8c 93 10 3e 9c 0c 8d 3d e9 2c cc 3c
       0.15904163 0.14118785 0.06887171 0.024923759
000200 3e 8e 95 bd 67 b4 ee 3d 0a c8 02 bd 2f 73 a3 3d
       -0.07302521 0.11655503 -0.031929053 0.07980954
000210 4a 69 27 bc 15 2a f1 3d 9d 23 77 3d ad 18 c0 bc
       -0.010217974 0.11775605 0.060336698 -0.023449266
000220 86 39 85 bc 06 1d f9 3d 2d 31 ca bd 7b a4 98 3c
       -0.01626278 0.12163739 -0.09872661 0.018633118
000230 87 35 ae bc ed 36 ce 3d 95 0c eb 3d aa ad 6f bc
       -0.021265758 0.1006907 0.11477009 -0.014628807
000240 a7 db af 3d 98 b7 61 3d d6 73 b7 bd c2 17 50 3d
       0.08586817 0.05510673 -0.08957641 0.050803907
000250 f6 d9 71 bd 0e 11 42 bc 07 b8 d4 3d 97 5a b4 3c
       -0.059045754 -0.0118448865 0.10386663 0.022015853
000260 29 a3 23 bc ce be a5 3d 25 03 97 bd be 68 3d 3c
       -0.009987631 0.08093034 -0.07373647 0.011560617
000270 6f 0b ab 3d 38 c1 f3 bd 87 fb 26 bd 9b 47 d6 3c
       0.0835179 -0.11902088 -0.04076722 0.026157191
000280 e4 b8 cb bd 9b b4 28 bd 69 f2 fe 3c d4 83 6d bb
       -0.099473745 -0.041187864 0.03112145 -0.0036241906
000290 fb e2 ab 3d 1e f0 cc 3d c1 9c de 3d 2b 5d f8 3d
       0.083929025 0.10006736 0.10869742 0.121271454
0002a0 3c 38 00 bd 60 84 c0 3d b6 85 f4 bd cd 2b 7e bd
       -0.03130363 0.094002485 -0.11939566 -0.06205349
0002b0 0c 9d ab bd 59 bc df 3d d7 ee c2 bd 04 61 11 bb
       -0.08379564 0.10924596 -0.09518211 -0.002218307
0002c0 cc 45 31 3d 73 42 87 bd ee d7 08 bd b8 44 ae 3d
       0.043279454 -0.06604471 -0.03340905 0.08509201
0002d0 e6 55 d5 3d a7 2f e2 bc f3 97 a3 bd 60 ee 91 3d
       0.104167745 -0.027610613 -0.079879664 0.071255445
0002e0 bc 7f 03 be d5 dd 2c bd 15 0d 48 bc fe 4d 24 3b
       -0.12841696 -0.042203743 -0.01221015 0.00250709
0002f0 52 91 cf bd d6 68 a1 bd e9 cc b4 bc 62 97 a6 3d
       -0.101351395 -0.07881324 -0.022070365 0.08134343
000300 76 d7 51 3d 1a af 82 3d 4b 6f 1d bd 53 83 12 3e
       0.05123087 0.06381054 -0.038436215 0.14307909
000310 df db 8e bd 32 c1 0c 3e 25 b2 07 3e c6 75 f6 bd
       -0.06975531 0.13745573 0.1325155 -0.12034182
000320 a0 3c b0 3d 1d 1f f9 3d 34 f9 be 3d b9 66 5a bd
       0.08605313 0.121641375 0.093248755 -0.05332062
000330 3e a2 41 3d df 25 a6 3c a4 ad e5 bb 5f 0c 89 bd
       0.047273867 0.02028173 -0.007009225 -0.06691813
000340 82 6e 0a 3d 92 cd 1f bd c2 e5 00 bc cc 7e 36 bd
       0.033796795 -0.039014407 -0.0078672785 -0.044554517
000350 6c 57 e4 3d 4f 73 24 3d 87 c5 80 3d 51 6b 0b bd
       0.11149487 0.04014903 0.06287675 -0.03403789
000360 8c 11 d7 bd 2d 4e f0 3c 85 56 b3 bc 7f f4 8e 3c
       -0.10501394 0.029334152 -0.021891842 0.01745057
000370 3b 4a 7a bd 57 94 99 bd b7 9b b0 3d 3f b2 d8 bd
       -0.061105948 -0.07498997 0.0862345 -0.10580873
000380 78 30 ad bd af 27 fb 3b 08 a5 50 bd 5b 08 e4 3d
       -0.0845651 0.0076646428 -0.050938636 0.11134406
000390 58 d3 9e 3c f2 e4 12 3e aa 2d 95 3c 87 96 0c be
       0.019387886 0.14345148 0.01821025 -0.13729297
0003a0 eb 74 99 3c a8 9c df 3c 97 22 60 bd c3 a9 f7 bc
       0.018732509 0.02729638 -0.054720487 -0.030232316
0003b0 9a b2 0c be 53 d2 5e bd 9a 09 aa bd 61 ba 9c bd
       -0.13740006 -0.0543998 -0.083026126 -0.076527365
0003c0 7f 80 7c 3b e4 44 04 bd c0 43 f8 3d 80 6a e4 ba
       0.0038528738 -0.03229226 0.12122297 -0.0017426759
0003d0 30 b8 9b bd dc ce 8f bd e8 85 59 3d 21 9f 9b bd
       -0.0760349 -0.07021877 0.05310622 -0.07598711
0003e0 5f 35 c6 3d 2a 70 d2 3d 54 34 bd 3b d4 4e 73 bc
       0.096781485 0.102753 0.0057740603 -0.014850337
0003f0 c2 93 0f 3e 40 1f 4f 3d de 38 5f bd ca 8a 10 bc
       0.14021209 0.05056691 -0.054497592 -0.008822152

fc3.bias f4 [10]
000000 54 29 35 3c be 71 95 bb d7 64 87 bd d2 1b b3 3d
       0.011057217 -0.0045606783 -0.066110305 0.08745541
000010 a8 b6 90 bd dd 44 e1 3c 82 2c 07 3e 0d 9c e2 bd
       -0.07066089 0.027498657 0.13200572 -0.110649206
000020 b6 1e 23 3d 1f 62 c5 3b
       0.03982421 0.00602366
