Exercise/Ex11/Dang.pth (torch, 476425 bytes, 12 tensors)

conv1.weight f4 [32, 1, 3, 3]
000000 f2 a3 5c be e4 0d f6 bd ef 39 22 3d 18 0a 75 bd
       -0.21546915 -0.12014368 0.03960603 -0.05982408
000010 f4 29 87 bd 02 b3 c2 bd b9 c7 fe bd bc 99 36 be
       -0.06599799 -0.09506799 -0.12440438 -0.17832083
000020 f6 ec d7 3d ec 35 da be 9b 82 13 be a5 cf 8a bd
       0.105432436 -0.42619264 -0.14405291 -0.06777886
000030 0c 98 73 3e 10 c7 37 bc 43 b4 16 bd 53 5c af 3e
       0.2378847 -0.011216894 -0.036793005 0.34250125
000040 b6 11 1e bd ab 80 b5 3e 25 24 ba 3e 46 16 94 be
       -0.03859111 0.35449728 0.363557 -0.28923243
000050 7f a1 f1 be da 77 e0 3e 3a f4 66 bd c0 20 25 bf
       -0.47193524 0.4384144 -0.056385256 -0.645031
000060 19 f3 fe 3e 8c 72 78 3e 5f da a3 3e 48 a1 3e 3d
       0.49794844 0.24262446 0.3200254 0.04654053
000070 e5 32 b1 3c 44 1b 05 3e fb 0c 27 3d d9 60 85 3e
       0.021630714 0.12998682 0.040783864 0.2605045
000080 56 6e 01 3f b5 89 df be 3f 88 05 bf 83 47 9a bc
       0.50558984 -0.4365975 -0.5216102 -0.018832928
000090 f8 ac 66 bd 86 44 79 3d 78 21 c4 bd be e9 bf be
       -0.0563173 0.060856365 -0.09576696 -0.3748302
0000a0 28 db 8e be 5e bf e7 bd 00 24 4a bd d5 d0 a7 be
       -0.27901578 -0.11315797 -0.04935074 -0.32776514
0000b0 54 cf b1 be 51 01 a7 3b 45 6a 9c 3c bc 4b e5 3d
       -0.3472849 0.0050965925 0.019093642 0.11196086
0000c0 26 8f c8 be e7 82 c2 be e6 c2 cb 3e d8 1c 92 be
       -0.39171714 -0.37990496 0.39797133 -0.2853763
0000d0 c8 21 84 3e ac f0 c2 3e 7a df 86 bd ce 45 bc 3d
       0.25807023 0.38074243 -0.065855935 0.09193002
0000e0 47 c4 81 3e 66 55 9e be 66 a8 db bd 85 98 83 3e
       0.2534506 -0.3092453 -0.10725479 0.257023
0000f0 d1 e5 a7 be b5 66 a8 be 84 f1 e7 3e b7 2c 02 3e
       -0.32792524 -0.3289086 0.4530145 0.1271237
000100 6b c1 9e bd 63 55 03 bf 0d 97 86 3e 1a 35 58 bd
       -0.07751735 -0.51302165 0.26287118 -0.052785017
000110 3e 12 9c 3e 40 1e 77 be 4b 39 74 3e 95 07 a3 3d
       0.30482668 -0.24132633 0.2384998 0.079604305
000120 2e 5d 86 be 21 d7 4d be 2b 16 e3 3d 34 59 8e be
       -0.26242965 -0.20101596 0.110882126 -0.27802432
000130 9b 46 a7 bd a1 b7 c5 be ac e7 af 3e d9 f8 2a bc
       -0.08167764 -0.3861666 0.3435644 -0.0104353065
000140 11 26 e9 bd 6a d8 cb bd ca e0 22 bd 57 f5 5a be
       -0.11384214 -0.09953387 -0.039765157 -0.21382652
000150 84 57 6e be 9b e2 9a be 71 ec 79 be 17 25 6b be
       -0.23275572 -0.3025101 -0.24406601 -0.22963367
000160 9c 3e ff 3d 6d 16 3b 3e e8 c7 21 be 2c 18 ce 3e
       0.12463114 0.18270274 -0.15798914 0.40252817
000170 d9 00 a1 bd 06 ff 8c be 7c ea 25 3e ea 74 a5 3e
       -0.0786149 -0.27538317 0.1620273 0.3231576
000180 5e 6c 78 be 9c 8b a2 be e5 ea 27 be 44 18 d4 3d
       -0.24260089 -0.31747139 -0.16398199 0.10356191
000190 50 0f a2 3e b8 9f a2 be 15 8e a5 be f6 72 c9 3e
       0.31652308 -0.3176248 -0.32334962 0.3934552
0001a0 c1 68 01 be c1 82 8d 3d 49 86 c6 3d c8 e7 5c bb
       -0.12637617 0.06909705 0.096935816 -0.0033707488
0001b0 a3 56 29 3e 52 5a 47 3e 92 1f ba 3e 5b ae 91 3e
       0.16536956 0.19468048 0.3635221 0.28453335
0001c0 07 95 3e 3e 25 66 09 3e 28 4c 7b 3e f1 89 9b 3e
       0.18611537 0.13417871 0.2454077 0.30378678
0001d0 70 41 72 3e 3d b5 f0 3d 08 a9 ad be 64 f3 4d bd
       0.23657775 0.117533185 -0.33918023 -0.050280944
0001e0 94 57 78 3e 85 14 bc 3e 58 2c 36 3e f9 15 12 be
       0.24252158 0.36734405 0.17790353 -0.14266194
0001f0 c5 49 17 be 5b d4 ea 3c f4 29 1e 3e 9a ba 16 be
       -0.14774235 0.028665712 0.15445691 -0.1471962
000200 df 03 d3 bc 92 7e 27 3e 79 d8 48 3e 08 68 53 bd
       -0.025758682 0.16356876 0.19613828 -0.051612884
000210 cb f9 a7 be d3 23 43 be 77 2d 93 be f8 a1 08 3f
       -0.32807764 -0.19056635 -0.28745624 0.53372145
000220 ca c0 7e 3e 9a 4d 96 be 29 21 a2 3e 0b c4 44 be
       0.2487823 -0.2935608 0.31665924 -0.1921541
000230 81 a9 8c be f9 d1 0a bd 2b 5d 8e bd 7a ca ad be
       -0.2747307 -0.03389165 -0.06951364 -0.3394354
000240 8e 73 fd 3d c4 cf 99 bd 80 aa 69 be 81 53 aa 3c
       0.12375556 -0.07510331 -0.22818947 0.02079177
000250 4c 26 80 bd b2 23 29 be 20 f5 05 3e cb 9c 49 be
       -0.062573045 -0.16517523 0.13081789 -0.19688718
000260 c0 e6 16 be f1 b8 4c 3d ba 0a aa be fb ed 9e be
       -0.14736462 0.04998106 -0.3321131 -0.3104094
000270 c7 ec 04 be 2c 12 cb be b6 36 a3 3d 8e c4 16 3f
       -0.12980948 -0.39662302 0.0796942 0.5889367
000280 21 d6 14 3f 7e e2 f4 3d 4d d6 49 3e d0 0b f9 3d
       0.58139235 0.119572625 0.19710656 0.12160456
000290 3a 79 77 bb de 7f ee 3d af 9d 03 3e 76 2e 4c bd
       -0.0037761466 0.116454825 0.1285312 -0.049848996
0002a0 15 0b 2c 3e 8c 65 0f be 70 d9 bd bd eb 67 36 be
       0.16801102 -0.14003581 -0.092699885 -0.17813079
0002b0 e4 89 e7 be 4e 63 7f 3e 52 44 77 be b0 9d aa 3e
       -0.4522239 0.24940225 -0.24147156 0.3332343
0002c0 86 50 92 3d 02 86 b9 3e 42 1a 96 3e ab 60 6e 3c
       0.07144265 0.36235052 0.29316908 0.014549415
0002d0 80 a1 dc bd 95 d6 a2 3e 25 e3 5a be 62 d7 14 be
       -0.10772991 0.31804338 -0.21375711 -0.14535287
0002e0 5f f6 0d be ad e0 67 3e c4 23 1f 3d c5 94 ab be
       -0.13863514 0.22644301 0.038852468 -0.3351194
0002f0 c7 5f ab 3e 24 e4 13 3e c6 3c d1 be dc 83 b3 3e
       0.3347151 0.14442497 -0.4086668 0.35061538
000300 41 eb 0d be d1 a3 a0 be 42 83 c5 3e 55 80 5a 3e
       -0.13859273 -0.31374982 0.38576704 0.21338017
000310 71 ed 99 be 9f c4 b7 3d 6c 99 4b be e5 55 9c 3e
       -0.30063966 0.08973049 -0.19882745 0.30534282
000320 91 83 cd bc 9e 33 58 be f5 e7 66 be b4 2f ca 3e
       -0.02508715 -0.2111344 -0.22549422 0.3948952
000330 20 e4 c2 be 88 c8 35 bd 92 02 a0 3e e3 93 9e 3e
       -0.3806467 -0.044380695 0.3125196 0.30972204
000340 41 94 af 3d ac 6f 7c 3e 13 c6 a2 be a5 b7 3f 3e
       0.08573199 0.24651974 -0.31791744 0.18722399
000350 f9 29 b4 3e 59 d7 73 be 70 20 fb be c6 47 85 3e
       0.35188273 -0.23812617 -0.49048185 0.2603132
000360 05 e0 a7 be 24 86 42 3e 07 4e a6 3e 97 03 e8 3e
       -0.327881 0.18996483 0.32481405 0.4531524
000370 e8 70 4f bd 19 79 be be 7b d6 b6 3d ed 61 10 bc
       -0.050644785 -0.37201765 0.08927628 -0.00881241
000380 90 77 70 39 44 df 19 be 30 f1 2d 3e 9e 66 c2 3e
       0.00022932724 -0.15026575 0.16986537 0.37968916
000390 87 f8 39 be fe 33 99 3e ff e2 05 3c f4 a5 a3 bd
       -0.18161212 0.2992248 0.008171796 -0.079906374
0003a0 0a 95 96 be 1d 8f 8d be b0 36 ce 3e 09 60 88 3e
       -0.29410583 -0.2764825 0.40276098 0.2663577
0003b0 b1 55 00 3f 1d a1 16 3e 4c 1b b3 3d 68 4e 8e be
       0.50130755 0.14709897 0.08745441 -0.27794194
0003c0 7d d1 02 bf a7 f4 d4 be 54 1c 93 be 6b 9b 3a 3e
       -0.51100904 -0.41592905 -0.2873255 0.1822335
0003d0 34 56 2e bd bd 1c 72 bc c2 1d 9a 3e 36 b9 e3 be
       -0.04256268 -0.01477736 0.30100828 -0.44477242
0003e0 7a e9 ab 3d 6e 79 f7 bc 9f 41 82 be ea b7 90 3e
       0.083941415 -0.03020927 -0.2544069 0.28265315
0003f0 a4 9a 80 3e 19 a0 dd 3e b2 6c 75 3e 7f a8 7e be
       0.2511798 0.43286207 0.23967245 -0.24868964

conv1.bias f4 [32]
000000 b8 ec 5e be 7c e2 64 bb ab d8 04 be e6 d6 05 bd
       -0.21769989 -0.0034925034 -0.12973277 -0.032675646
000010 07 8d 91 be 88 1a 81 3d 57 c8 1b be 8c 9c 14 3e
       -0.28427908 0.063038886 -0.15213142 0.14512843
000020 15 f7 43 bd c5 d3 aa be 42 dd 16 be 1b 48 2e 3e
       -0.047843058 -0.33364692 -0.1473284 0.17019694
000030 e5 1a 07 3e 3a 47 15 be ad 86 3d 3d 2a 09 c2 3d
       0.13193853 -0.14577952 0.046271015 0.09474404
000040 87 43 28 be 42 12 4e 3e fc 10 28 3e 68 8a a2 3e
       -0.1643201 0.20124152 0.16412729 0.3174622
000050 e5 0c 9b bd 8d e4 fc bb 2f 68 df bd 7d b3 88 3d
       -0.07570819 -0.007717675 -0.10908543 0.0667486
000060 91 06 5a 3e 0c c1 11 be 32 4b 1a be f2 ae e9 3c
       0.21291567 -0.14233798 -0.15067747 0.028525803
000070 d2 ea 05 bd 53 e5 a9 3d a3 d4 2c 3c 50 03 ad 3d
       -0.032694645 0.08295693 0.010548743 0.084478974

conv2.weight f4 [64, 32, 3, 3]
000000 c6 8a 7e bd ea 10 26 3d 89 f1 cd bc 81 83 45 bd
       -0.062144063 0.040543474 -0.025139587 -0.048221115
000010 4b 16 5b bd fd f7 8e 3d 4b 54 cd bc 75 de dd 3b
       -0.053488057 0.06980894 -0.025064608 0.0067709037
000020 35 c2 81 3d 61 c4 cd 3d 8e 8a 2d bc ae 94 9a be
       0.0633587 0.10047222 -0.010592116 -0.3019156
000030 17 34 14 3d ae 62 3d bd 9e 81 35 be 46 2a 99 be
       0.03618249 -0.046236686 -0.17725226 -0.29915065
000040 38 d3 8f be 75 80 34 be 70 1e 14 3e 3f aa ae 3d
       -0.28090835 -0.17627127 0.14464736 0.085285656
000050 3d 6a 0d 3e b2 7f dd 3d ca 48 1e 3d 80 53 ff 3c
       0.13810058 0.108153716 0.038643636 0.031167746
000060 e6 34 23 bd da 7b 59 bd 77 02 87 be 12 d9 21 be
       -0.03984537 -0.05309663 -0.26369068 -0.15805462
000070 3a c3 c1 be 6c 7a 88 be 9a 45 cb bc 91 10 62 be
       -0.3784426 -0.266559 -0.024813462 -0.22076632
000080 73 16 76 be 99 24 b6 bd bb 2c 07 be 74 8e 33 bc
       -0.24032001 -0.08893699 -0.13200657 -0.010959256
000090 f6 8a 80 bc 2f 25 95 3b 44 91 8f 3d b9 d3 cb bd
       -0.015691262 0.004551552 0.07010129 -0.09952492
0000a0 1e 3e 51 bc d0 37 30 3d 5b 50 5f 3d de 9e 1f bc
       -0.012771158 0.043021977 0.054519992 -0.009742467
0000b0 9f b6 81 3d 54 e3 2a bd 86 96 cf bd be 1f 54 be
       0.0633366 -0.041720703 -0.10136132 -0.20715234
0000c0 9c 25 05 3d 9b 68 9a be f2 7b bc bd 03 24 3e bc
       0.03250657 -0.30157933 -0.09203328 -0.011605266
0000d0 f0 98 26 be 2b 75 a8 bb 60 04 45 bd fa b4 3b 3d
       -0.16269279 -0.0051409206 -0.048099875 0.04582689
0000e0 ee a5 c8 3c de 08 6b 3d 69 c5 d3 bc 2c f0 74 3c
       0.024493184 0.057381503 -0.025850968 0.01494984
0000f0 b0 f5 93 3d 32 8d ac bd 6c 1a 42 3d f2 1d 1b 3d
       0.072245955 -0.08425368 0.04738848 0.037870355
000100 be a1 02 bd 84 af b0 bd 4e e6 05 3e 04 5c 6b bd
       -0.03189253 -0.08627227 0.13076136 -0.0574608
000110 2f da 51 3d 0a b0 50 bd 11 02 9e bd d2 83 bd bd
       0.051233467 -0.050949134 -0.07715238 -0.09253658
000120 c2 ee b6 bc 19 76 55 3d 2c 44 a9 3d 33 e4 a2 bd
       -0.022330645 0.05211458 0.08264956 -0.07953682
000130 8c 19 ec bc 57 c6 e9 3c f0 11 40 bb e5 79 d4 bb
       -0.028820775 0.028536959 -0.0029307567 -0.0064842575
000140 8d d0 dd 3c 99 da 2f bd e4 47 57 3d 9c 4b 68 bc
       0.027076984 -0.04293308 0.052558795 -0.014178183
000150 4c 8d e9 bd 10 e9 52 3d 96 f6 8f 3d a9 fb 89 bc
       -0.11403903 0.051491797 0.070294544 -0.016843634
000160 04 63 b8 bb e8 18 09 3d 9a 38 89 3b 07 b0 cb bb
       -0.005627038 0.033471018 0.0041876556 -0.0062160525
000170 4e 26 aa 3c 0d 33 07 bd 5f e9 08 3d 4a 73 47 3d
       0.020770218 -0.03300767 0.033425685 0.048693933
000180 9a cb a0 3d f5 c0 14 3d fa 29 6c 3d 94 05 11 3e
       0.07851334 0.03631683 0.05765722 0.14162284
000190 cf b8 08 3d 83 0e 8b bd 25 5e f2 3d 97 f4 c6 3d
       0.033379372 -0.06789877 0.11834363 0.097146206
0001a0 b3 b1 3e bd 22 0b 51 3d a8 a3 3c bd 2a 77 00 be
       -0.046556186 0.051036008 -0.046054512 -0.12545457
0001b0 7e ea 4e 3e 71 c4 83 3d c2 d3 23 be 1e 79 3d 3e
       0.20206639 0.064339526 -0.15998748 0.18503234
0001c0 ff 9c bf 3d 01 4b 23 be b7 2d 4c 3d c0 3f 56 bd
       0.093561165 -0.1594658 0.049848285 -0.05230689
0001d0 2b ba 1b be e9 a5 cd 3d af 1b 0e be 55 03 53 be
       -0.15207736 0.100414105 -0.13877748 -0.2060674
0001e0 b7 61 43 3d f1 3b b2 bd ed 0b 22 be 34 9f 20 bd
       0.04770061 -0.08702839 -0.15824862 -0.039214328
0001f0 0d 06 3c be 97 91 5e be 49 98 1a bd 5b 1a 26 3d
       -0.18361683 -0.21735226 -0.037742887 0.04055248
000200 79 fe 5f 3d 42 62 14 bd 36 50 43 3d d3 95 eb bc
       0.054686043 -0.03622652 0.047683917 -0.028757965
000210 07 3c 58 3d fe 2a 27 3c 38 06 3a 3d a7 48 e3 3b
       0.05279162 0.010203121 0.045416087 0.006936151
000220 42 d7 2a 3d a7 5d 85 3d c5 90 68 3d 0d 56 74 3d
       0.041709192 0.065120034 0.056778688 0.059652377
000230 b4 79 70 3d 4c e1 04 3e b7 34 0b 3e 3a 6c ae 3c
       0.058709815 0.12976569 0.13594328 0.02129184
000240 f4 2c 3c bb fd c2 a1 3d 7c 64 84 bb 4f 01 57 bd
       -0.0028713318 0.07898519 -0.004040299 -0.052491482
000250 a9 e3 20 3b dd 96 17 bc 8d f7 70 3c 31 60 8d 3d
       0.0024549759 -0.009252277 0.014707458 0.06903113
000260 49 6b 04 3d 37 d2 86 3d 58 b5 77 3c 5c 59 09 bd
       0.032328878 0.06583064 0.015118919 -0.033532485
000270 e0 e0 61 3c a3 cd bc 3c 8e d0 e3 bd 94 11 23 be
       0.0137865245 0.023047274 -0.11123763 -0.15924674
000280 b1 6a d5 bd 90 b8 40 be 84 cc 3b 3d f6 1c 97 bd
       -0.104207404 -0.18820405 0.04584934 -0.07378571
000290 65 33 4a bd d9 87 c5 3d 40 5b dc 3d db 73 7c bd
       -0.04936542 0.096450515 0.10759592 -0.061633926
0002a0 18 c4 3e 3e e9 00 36 3c 1a 9c 52 be c4 7b 97 3c
       0.18629491 0.011108615 -0.2056736 0.018491633
0002b0 1b 95 2a bd bc d2 a7 be a7 17 dc 3d 8d ec 73 bd
       -0.041646104 -0.32777965 0.10746699 -0.059551764
0002c0 f7 66 4f be 4a d7 cf bd 67 06 a6 be 01 5d 5a be
       -0.20254122 -0.10148485 -0.3242676 -0.2132454
0002d0 54 6f de bc d9 81 90 bd f8 11 6e bd 09 57 39 3b
       -0.027152695 -0.070560165 -0.058122605 0.0028280637
0002e0 56 26 0e bd 21 b0 f2 3c a1 8b 18 3b 80 41 92 bc
       -0.03470453 0.029625 0.0023276585 -0.017853498
0002f0 43 62 6d 3c 65 13 37 be dd 83 43 bd b9 29 23 be
       0.014488759 -0.17878492 -0.047733176 -0.15933885
000300 da e8 82 bd 18 58 9c bd 89 b7 8c bc c3 35 4c bd
       -0.06392069 -0.0763399 -0.01717736 -0.04985596
000310 2d bd 69 bd 01 fa 96 bd 6a dc b1 3b 54 3f 7c 3d
       -0.057065178 -0.07371903 0.0054278867 0.061583832
000320 48 c5 2a be a5 7a 3b 3d 85 f1 41 be 40 68 22 bd
       -0.1667682 0.04577126 -0.18939789 -0.0396502
000330 7a f5 a1 3c bd e0 18 be ca d1 ab 39 60 77 48 3d
       0.019770373 -0.14929481 0.00032771967 0.04894197
000340 95 15 86 bb 91 59 71 be d0 f7 58 3c a4 d7 e5 bd
       -0.0040919282 -0.23569323 0.013242677 -0.11222771
000350 a4 4d 66 be 64 f5 0e bc 8b ad 63 be 30 08 2c 3c
       -0.22490555 -0.008725498 -0.2223417 0.010499999
000360 3c c8 34 bd bb 00 bb bd 48 f4 c4 bd f6 ad a9 3d
       -0.04413627 -0.09130999 -0.096169055 0.082851335
000370 15 44 25 3c 19 be 40 be f0 6b 89 39 8d 7d a7 bd
       0.010087033 -0.18822517 0.00026211096 -0.08178244
000380 93 39 88 be fd 8c 41 be 45 45 72 be 7f 8a 94 be
       -0.26606426 -0.18901439 -0.23659237 -0.29011914
000390 50 99 64 3d ce 8a df bd 64 d4 d2 be b2 c1 bc 3d
       0.055810273 -0.10915147 -0.41177666 0.09216632
0003a0 ce 27 1f be fd 8d 26 3c c0 95 2a be fe 5d 4d be
       -0.15542528 0.010165689 -0.16658688 -0.20055386
0003b0 21 cd 24 be 07 1f 20 3d 08 e4 f1 bc be f8 42 be
       -0.16093875 0.03909209 -0.02952768 -0.190402
0003c0 25 14 4a 3e 85 41 0e 3e f2 67 61 be 0c f0 9a bd
       0.19734247 0.13892181 -0.22012308 -0.075653166
0003d0 7d ca c3 bd 6d 0e 85 bd 84 55 38 3d 74 18 8f 3d
       -0.09560106 -0.06496892 0.04500343 0.06987086
0003e0 f4 3f 4f 3d ba 50 a4 3d ac 57 f9 3d 04 ae f9 bd
       0.0505981 0.0802321 0.12174925 -0.12191394
0003f0 ff bb 0a be 8b 28 40 be d1 6f d5 bd 95 b0 7d 3c
       -0.13548277 -0.18765466 -0.10421718 0.015483995

conv2.bias f4 [64]
000000 3b 38 48 3c 62 36 78 bd 21 7e f8 3c b1 10 0a 3b
       0.012220438 -0.06059874 0.03033358 0.0021067078
000010 cd 07 df bb 29 a3 9f bc 4e c5 ea bc 3a ff 44 3d
       -0.00680635 -0.01948698 -0.028658535 0.048094966
000020 93 48 70 bc e3 e2 0e bd c6 ee 69 bd 83 73 e5 bc
       -0.014665741 -0.034884345 -0.057112478 -0.028009182
000030 92 d0 0f bd 4a 38 35 bc b9 cc 2f bc 8d 5e be 3b
       -0.035111018 -0.011060784 -0.010729962 0.005809611
000040 70 4c 4a bd f1 8b 52 bd b9 df b8 bb 10 0b cc 3c
       -0.049389303 -0.05140299 -0.005641904 0.024907619
000050 d6 30 ed bc 3d 00 86 3c 2e 58 37 bd dc ee bf bc
       -0.02895395 0.016357535 -0.04476183 -0.023429327
000060 02 a6 22 3d 78 56 74 bd f9 80 84 3c bb c6 42 3d
       0.0397091 -0.059652776 0.01617478 0.047552805
000070 8e fa 97 bd 62 6f f0 bc 85 90 73 3c ba 1c 63 bd
       -0.074208364 -0.029349986 0.014865999 -0.055447318
000080 14 2c a2 bd 94 ac 07 bd 2f 2a 21 3c cc 49 46 bd
       -0.079185635 -0.033123568 0.0098367175 -0.048410222
000090 32 85 32 bd 1d f2 05 bc e8 5c 4e 3b 55 87 47 bc
       -0.043584056 -0.0081754 0.0031488482 -0.012178262
0000a0 8f e3 fe bb 50 1f 5f bd d1 aa a6 bc 3e 29 5a 3d
       -0.007778592 -0.05447322 -0.020345123 0.053261988
0000b0 5f 06 9a 3b 22 7f a0 bb 4c e4 21 3d 70 f4 88 3b
       0.0047004665 -0.004897968 0.03952436 0.00417953
0000c0 47 71 c5 3c e9 fe 52 3c 6d dd 47 3b cd ee 8f bd
       0.024101866 0.012878158 0.003049697 -0.070279695
0000d0 e7 9f 40 bd ae 90 15 3d e4 07 c3 bb 8f f6 c6 bc
       -0.047027495 0.03651493 -0.0059518684 -0.02428749
0000e0 5d 29 8b bd 3f 98 95 3c 28 56 b0 3b 40 46 79 bd
       -0.06794999 0.018261073 0.0053813644 -0.06085801
0000f0 83 57 07 bd 60 51 c2 3c 73 0d 3f 3d 92 7a e8 bc
       -0.033042442 0.023720443 0.046643686 -0.028378759

conv3.weight f4 [128, 64, 3, 3]
000000 42 07 cc 3c ef 86 cb bc ac bf 5b be 1b 63 0d bc
       0.024905805 -0.024844615 -0.21459836 -0.008629586
000010 b2 67 4a bd f0 2b dc 3b b3 02 fd bd fb 17 eb bd
       -0.049415298 0.006719105 -0.123540305 -0.11479183
000020 79 0c b0 3d 59 10 d2 bb bf d4 01 bd 3d c0 fb bc
       0.08596129 -0.00641064 -0.03169703 -0.030731315
000030 b2 71 50 3d 64 8c 72 3d 6e bb a3 bc 91 1e 22 3d
       0.05088968 0.05921592 -0.019986834 0.03957993
000040 8a 21 1f 3c e7 a0 6a 3c 51 76 3e be 91 38 7d 3d
       0.009712586 0.014320589 -0.18599822 0.061821524
000050 6a 4a 93 3d c6 cf 5d 3c d6 94 8e 3d d7 2a 75 3d
       0.07191928 0.013538307 0.06961982 0.05985531
000060 f0 ed 2a 3d fc e0 81 bc 73 16 bc bc 4c 69 9d bd
       0.04173082 -0.015854351 -0.022959923 -0.076860994
000070 52 64 4c 3d 95 95 20 3d 50 f5 c4 3d d1 74 db bc
       0.04990036 0.039205153 0.09617102 -0.0267891
000080 0a 98 81 bd 76 c7 ab bc a5 63 bd bd ad 10 ae bc
       -0.06327827 -0.020969134 -0.09247521 -0.021248186
000090 52 04 10 3e 1d 3b d7 bd 32 33 c9 3d fa 67 b4 bd
       0.14064148 -0.10509322 0.09824218 -0.088088945
0000a0 c3 cb 19 bd 61 08 d9 bd e4 c6 80 bd b6 c1 35 3c
       -0.037547838 -0.10597301 -0.062879354 0.011093548
0000b0 df 0c 17 bd 11 2a 21 bd 3a 74 7b 3c 37 af 4d bd
       -0.03687751 -0.03934676 0.015347535 -0.050215926
0000c0 01 eb 3e bd 2e f3 9f bd 7d fd 62 bd 1e d2 00 3e
       -0.046610836 -0.07810055 -0.055417527 0.12580153
0000d0 b8 68 37 3d 59 4c 3a bc 9b af f1 bd f6 5f 28 3b
       0.044777602 -0.011370742 -0.11801072 0.0025691963
0000e0 7a e6 08 3e 97 a3 18 3b 7c c0 67 bc 10 fb 08 3d
       0.1336917 0.0023290867 -0.014145013 0.033442557
0000f0 1a dd b6 bd bb 59 45 be 31 b8 e1 3d a3 5c 85 bd
       -0.089288905 -0.1927251 0.1102146 -0.0651181
000100 9b 04 e0 bc 9f 63 96 ba ef aa 6f bc fd 04 3c 3c
       -0.027345946 -0.0011473781 -0.014628156 0.011475799
000110 44 a5 2b 3b 7b 13 f9 bb bb 2a 92 bd e6 ff 22 bd
       0.0026191035 -0.007601199 -0.071370564 -0.039794825
000120 7a 60 c8 bc 4d bd 0c 3d ba 85 9c bd 0d 6e 1c bd
       -0.024460066 0.03436022 -0.07642694 -0.03819089
000130 a5 bf 83 3d cf 18 9d bd aa fb ad bd 79 2b c5 3c
       0.06433038 -0.076707475 -0.08495267 0.024068581
000140 d0 89 2e 3d cb 92 fb 3d 5e e8 cb bb ec 41 88 3d
       0.042611897 0.12283858 -0.0062227687 0.066531986
000150 9b 06 de 39 4f 45 a5 bd 0f fc b7 bd ff 60 bf 3a
       0.0004234806 -0.0806986 -0.08983623 0.0014601051
000160 c8 b7 32 bd bc 6b 6b bd 84 ff 43 bd 7d fb 86 bc
       -0.0436323 -0.05747579 -0.0478511 -0.01647734
000170 47 7b b4 3d f8 59 a5 bc 91 10 47 bc cc 33 fa 3b
       0.08812576 -0.020184502 -0.012149946 0.007635569
000180 72 ad 2e 3d 99 b7 6a bc e2 c8 0a be d8 a3 cc bc
       0.04264588 -0.014326 -0.13553193 -0.02498047
000190 87 b7 01 3c 47 33 5a 3d 69 ce db bc a8 cf 96 bd
       0.0079172915 0.053271558 -0.026831822 -0.07363826
0001a0 27 2b 28 bd e8 a1 af bd 8c aa 29 3d 27 fa 8b bd
       -0.04105678 -0.08575803 0.04142241 -0.06834822
0001b0 4d 19 c1 bd a2 f8 5f bd 8c f4 84 bd b5 95 e3 3c
       -0.09428654 -0.054680474 -0.06491956 0.027781347
0001c0 07 b1 f8 3b 75 33 3c bd 3b 86 e7 bb 87 f3 c6 bc
       0.0075894627 -0.04594751 -0.007065562 -0.024286045
0001d0 72 8f 9b bb 1f d4 7d 3d 14 c5 a9 bc f4 4a 24 3e
       -0.0047473246 0.061969873 -0.020723857 0.16044217
0001e0 ec c2 9e bc 1b 86 85 bb 8c 1a 07 3d c3 ca 38 bd
       -0.019380055 -0.0040748245 0.0329843 -0.045115244
0001f0 e7 e2 c5 3a b8 a8 51 bd a6 c5 a6 3c 2b b3 f2 3d
       0.0015097529 -0.051186293 0.020357918 0.1185058
000200 14 54 36 3c c3 72 4f bd 49 1d c2 3c c6 a8 a7 bd
       0.011128444 -0.050646555 0.023695605 -0.08186488
000210 6a 52 50 bd 22 04 80 3d 3c 9f 4b bd 13 60 0c be
       -0.050859846 0.06250788 -0.049712405 -0.13708524
000220 2b 1c 9d bd db ff 11 3e 3d 0d db 3d 9f 9b 06 3d
       -0.07671388 0.14257757 0.106958844 0.032863256
000230 d7 35 ca bc 4e cb be bc c7 4b 9e bc d8 7b 17 bd
       -0.024683876 -0.023290303 -0.019323243 -0.03698334
000240 b3 12 0a 3c f1 be 54 bd c9 07 2f 3d 43 cb 55 3c
       0.00842731 -0.05193991 0.042732034 0.01304895
000250 0c 5f 04 be 8b 76 42 be a2 05 b9 3d b6 f6 ed 3d
       -0.12926883 -0.18990533 0.090342775 0.11619322
000260 51 cb aa bc d5 a0 35 ba 3d f9 ca bc 36 93 2f 3d
       -0.020848902 -0.0006928568 -0.02477705 0.042865
000270 ab 5a 5a 3d b5 33 b4 3d 8c f8 83 3b 8d 8f 67 bd
       0.053309124 0.08798925 0.004027432 -0.056533385
000280 33 cc 66 bd ef ba 4b 3b e6 79 ae bd 3c bc cf bd
       -0.056347083 0.0031086763 -0.08519344 -0.10143325
000290 32 29 61 bd ad 68 c4 bc 0c 6f 79 3d be 6f 0d 3d
       -0.054970928 -0.023975695 0.06089692 0.034530394
0002a0 16 a2 29 3e 49 19 dc 3d 54 39 8b bc e6 9a 94 3c
       0.16565737 0.1074701 -0.01699511 0.018140268
0002b0 93 2a 93 bd 17 62 7a 3d 71 d7 84 bd 15 fc a7 bd
       -0.07185855 0.061128702 -0.06486405 -0.08202378
0002c0 e2 9b e0 bd d3 5e 03 bc c7 52 b6 3d 23 83 82 bd
       -0.10967232 -0.008018213 0.08902507 -0.063726686
0002d0 f9 08 45 3c 43 2a 22 3d 50 2d 2f 3d 12 35 fc 3d
       0.012026065 0.039591085 0.042767823 0.1231481
0002e0 f1 1c e2 bc d3 32 39 bb 65 76 35 bc ce 18 ad 3b
       -0.027601691 -0.0028259053 -0.011075591 0.005282498
0002f0 d5 ed bb 3d 58 e9 ac 3d 6b 1f c3 ba 41 62 97 3d
       0.09176222 0.08442944 -0.0014886683 0.07391787
000300 00 9b 91 bd 32 ba ab bd ed 9f 3c bd 35 8a df bb
       -0.07109642 -0.08385123 -0.046050955 -0.0068218955
000310 6e fe b9 3c aa f7 d2 bd ca 97 12 bc 30 ff 69 bd
       0.02270433 -0.103011444 -0.008947322 -0.05712813
000320 1c f2 11 bd d9 bf 80 3c 44 22 5c bb c9 cc 63 be
       -0.035631284 0.01571648 -0.003358976 -0.22246088
000330 df ad e9 3c 8f f7 e7 3d e4 dd 16 bd 75 72 2d bd
       0.028525291 0.11326515 -0.036832705 -0.042345483
000340 af 9e ac bd 83 ad 76 3d cd 6d 83 bc 0a e8 05 3b
       -0.08428704 0.060224067 -0.016043568 0.0020432496
000350 a1 a2 ca 3d 70 81 aa bc 10 48 48 3c d0 a2 d6 bb
       0.098943 -0.020813674 0.012224212 -0.0065501705
000360 b1 b3 d0 3c 42 0a e1 3b 9d 65 c5 3d 09 80 02 3d
       0.025476309 0.006867678 0.09638522 0.031860385
000370 e1 75 bf 3d 52 83 4d 3c 95 9e 72 bc a5 dc 62 bc
       0.093486555 0.012543516 -0.014808317 -0.013846551
000380 5f d1 58 3c 06 46 ac 3b af 1c 95 bd d3 cb 5d bd
       0.013233512 0.005257371 -0.072808616 -0.05414946
000390 20 af 38 bd 41 f9 87 bd b1 f3 c1 bb 4b b7 54 bd
       -0.045088887 -0.06639338 -0.005918943 -0.051932614
0003a0 da bd c7 bd 43 64 9b 3d 6c 22 a1 3b 0f 5c f5 bc
       -0.09753008 0.07587483 0.0049174335 -0.029951124
0003b0 85 d4 c0 3d c9 ea 0b 3d 2b 64 a8 3d 6b 1c c3 3d
       0.09415535 0.034159455 0.082222305 0.09526905
0003c0 1c 31 e6 3c 45 2d 84 bd fd e8 44 3d 10 94 64 3d
       0.028099589 -0.06453947 0.048073757 0.055805266
0003d0 ec e2 75 3d 1b 99 e4 3b df fb 16 3c 95 67 08 bd
       0.060030863 0.0069762594 0.009215324 -0.03330191
0003e0 35 2a 05 3e 90 d3 2d be e1 64 28 3d 46 25 ce bc
       0.13004382 -0.16975236 0.04111183 -0.025164258
0003f0 38 56 39 be f7 85 cf bd 01 a2 ea 3d 14 d3 1b bd
       -0.18099296 -0.10132974 0.11456681 -0.038043097

conv3.bias f4 [128]
000000 d6 ef 09 bd 6c be 29 bd 0c 40 dc bb 38 ef 1c 3b
       -0.03367599 -0.041441366 -0.006721502 0.0023946296
000010 ba 00 57 3c 14 36 f9 bc c0 77 7c bd ea 2e d0 3c
       0.013122732 -0.030421294 -0.06163764 0.025412995
000020 c0 6a 97 bd 7c 00 50 bd fa 9e a6 bd 6d d8 52 3d
       -0.07393408 -0.050781712 -0.08135791 0.05147593
000030 21 21 6c 3c 00 5d 32 bd b4 b2 61 3c 81 53 5e bd
       0.014412195 -0.043545723 0.013775516 -0.054278854
000040 a8 e4 5e bb be ef 92 bc 17 64 3e bd cd 43 e5 bc
       -0.0034010801 -0.017936584 -0.046482172 -0.027986431
000050 e0 29 6e bd 96 7f 67 bd fd 1d f7 bc d6 50 8f bd
       -0.058145404 -0.05651816 -0.030165667 -0.0699784
000060 da f6 14 bd da c4 59 3b 2d f5 8e bd fb 57 ba bc
       -0.03636823 0.0033228905 -0.06980357 -0.02274703
000070 28 67 36 bd 73 c9 b5 ba 29 13 c8 bc 58 4d d3 bc
       -0.04453197 -0.0013869241 -0.024423199 -0.025793716
000080 f8 d8 15 bd 79 ce 93 3c f1 0c b2 bc 15 2f 3e 3d
       -0.03658387 0.01804279 -0.021734687 0.04643162
000090 a3 42 65 bd 95 11 63 bd e3 49 7c 3b 95 de 2d bd
       -0.055971753 -0.05543669 0.0038496188 -0.0424486
0000a0 27 70 15 bd 02 18 5e ba 3f 4b 09 3c 0f 4d 95 3c
       -0.03648391 -0.00084722054 0.0083797565 0.018225221
0000b0 ab a2 ee 3c 40 18 2b bd 4d 98 5d bc 6d f5 39 bb
       0.0291303 -0.041771173 -0.013525081 -0.0028375045
0000c0 39 01 60 bc dc d7 f7 bc 67 87 27 bd b9 77 c2 3a
       -0.0136721665 -0.030254297 -0.040900614 0.0014836706
0000d0 6f 3e fe bc 9e 4f 3c bd f3 09 ad 3c 5d a8 88 bb
       -0.03103563 -0.045974366 0.021122908 -0.004170461
0000e0 dd bb e1 bb 91 10 4d bd 41 ae d1 ba 37 9c 73 bc
       -0.00688885 -0.050064627 -0.0015997366 -0.0148687875
0000f0 cc ec d2 3c 03 13 f4 b9 88 90 a4 3c a2 38 73 bd
       0.02574768 -0.00046553471 0.02008845 -0.05938018
000100 57 72 0c bd f9 69 a5 bc 14 46 d1 bc a3 30 a8 3b
       -0.03428873 -0.020192133 -0.025546111 0.005132751
000110 d4 d4 44 3c 89 a0 41 bd f2 63 87 3d ed be e9 bc
       0.012013633 -0.04727224 0.0661086 -0.028533423
000120 39 92 1c bd c4 93 56 3c 45 8f 53 bd 71 ea 58 bd
       -0.038225386 0.0130967535 -0.051650304 -0.052957956
000130 ee 4f 9b 3c a0 e1 fd bc ad 34 3e bd 20 16 98 3c
       0.018959012 -0.030991375 -0.046436954 0.018565238
000140 eb d9 c2 3c d3 19 94 bc 28 5c be bc 66 be 2f bc
       0.023785552 -0.01807872 -0.023237303 -0.010726547
000150 2a 4d 06 bd 54 ea 6e bd 0d 56 c7 3c c0 dc 3c 3c
       -0.032788433 -0.05832894 0.024333024 0.01152724
000160 f0 fe df 3c 3a 21 46 3c 5f 3f f8 bc 21 b2 be bc
       0.027343243 0.012092883 -0.030303655 -0.023278298
000170 24 69 1b bd 59 cf a1 bc 94 fb 80 3c ab 9e 86 bd
       -0.037942067 -0.019752191 0.015744962 -0.06573232
000180 8c 37 ce 3c f1 06 1f 3d 0a d5 f1 bb 03 b4 4f bd
       0.025172971 0.03882498 -0.0073801326 -0.050708782
000190 ca 0f ba bc 31 bf a3 bc 80 08 84 bc 3c f7 a7 bc
       -0.022712607 -0.019988628 -0.016117334 -0.020503633
0001a0 4c f1 af bc 48 de 65 bd 78 10 7a bd 46 25 12 bd
       -0.021477364 -0.056120187 -0.061050862 -0.035680078
0001b0 d3 77 f0 3c ff 0c d0 bb 0d 18 62 bd 33 40 dd 3c
       0.029354012 -0.0063492055 -0.055198718 0.027008152
0001c0 a6 eb 01 3d b6 09 09 bc bc 44 1a 3d 17 fb 0d bd
       0.031718872 -0.008364132 0.037663206 -0.034663286
0001d0 d5 08 94 3c aa 3e 79 bc bb 69 35 3c 59 4f 1b bd
       0.018070618 -0.015212694 0.011072571 -0.03791747
0001e0 41 ac e9 3c bc c5 21 bc c6 80 8e bd b8 46 b2 3c
       0.02852452 -0.009873804 -0.06958155 0.021762237
0001f0 e3 1b 30 bd f4 09 c7 bc 91 a5 fb 3b 91 fd 43 bb
       -0.042995345 -0.024296738 0.007679649 -0.0029905776

fc1.weight f4 [128, 128]
000000 30 59 04 3d dd 0b c8 bc c4 e0 d7 bd 6d da cf bd
       0.03231162 -0.02441972 -0.105409175 -0.10149083
000010 b2 7c cd bd b9 dc 42 3c 64 aa a2 bc a6 2e 83 3d
       -0.10033549 0.011893445 -0.01985664 0.06405382
000020 b2 46 64 3d d1 e5 91 bd e9 06 2b bd 8d 82 b6 3c
       0.055731483 -0.07123912 -0.041754637 0.022279048
000030 a7 26 91 bc 18 5d 4a 3b a4 a6 b4 3d cb 82 3d 3d
       -0.017718626 0.0030878242 0.08820847 0.046267312
000040 ba 4f be 3b a5 f8 8d bd 62 db 02 3e 94 1d 16 3e
       0.005807844 -0.06932191 0.12779 0.1465972
000050 df b7 7d 3d 11 a1 6b bd 45 55 e3 3d ac 68 bb bc
       0.06194293 -0.05752665 0.11100248 -0.02287706
000060 59 9c fc bc 2e 62 4d bc 63 a6 61 3d ac 87 24 bc
       -0.030836271 -0.012535615 0.05509032 -0.010042112
000070 e1 6b da 3d 11 b3 97 3d c6 2b df bc 15 ef 8a bd
       0.106651075 0.07407201 -0.027242552 -0.067838825
000080 69 21 66 3b e8 58 d3 bd 8d 6f 40 bd a4 44 da 3c
       0.003511513 -0.10319692 -0.046981383 0.026644059
000090 21 f3 6d bd 24 65 cb 3d 90 65 d7 3d c8 7e 72 bc
       -0.058093194 0.099314004 0.105174184 -0.014800735
0000a0 c1 b4 8b bd 69 84 c5 bc 1a 9e 2d bb e6 6c eb bc
       -0.068215854 -0.02411099 -0.002649194 -0.02873845
0000b0 7a be 25 3d 80 5e 8d bc 9b 69 ba 3c 5d 08 b1 bd
       0.040464856 -0.017256975 0.022755435 -0.08644173
0000c0 56 2c 6c 3d 9a df 8c 3d da e4 29 bd 5f 31 c1 3d
       0.05765947 0.06878586 -0.041478015 0.09433245
0000d0 2b b8 5e 3c d3 fd ab bd f1 29 3d 3d 2c 00 4c 3d
       0.013593714 -0.083980225 0.046182577 0.04980485
0000e0 48 7d 06 3e 21 07 29 3d db a2 e9 bd 8b ec 79 3b
       0.13133729 0.041266564 -0.11408015 0.0038135375
0000f0 00 83 83 bd 55 bf 1e be 57 06 3d 3d 9b 7f 82 3d
       -0.06421471 -0.15502675 0.046148624 0.06371995
000100 d7 61 25 bd 54 ea b3 3d 31 f5 cf bd d1 7f a1 3c
       -0.04037651 0.08784929 -0.101541884 0.019714268
000110 06 8b bd 3d 65 2e 24 3c 0b 71 4b bc 5c 85 2b 3b
       0.09255032 0.010020827 -0.012417088 0.0026172018
000120 13 fa 42 bd 73 f0 28 3d 69 8c 4c bd 36 c5 0c 3b
       -0.04760177 0.041244935 -0.049938593 0.0021479852
000130 1d e7 2f 3b c0 87 59 3d 2e c8 37 3e e8 31 8d 3d
       0.0026840635 0.053107977 0.17947456 0.068942845
000140 fc 87 97 bd 17 ec be bd 0f ca cf 3c 0c 62 71 bd
       -0.07398984 -0.09322374 0.025364904 -0.058931395
000150 60 e2 c8 bb be 08 76 3d dd ad e7 3c fc d1 61 bd
       -0.0061305016 0.06006693 0.028281147 -0.055131897
000160 a5 7f 62 bc b8 bd 6a be 37 09 27 3e a9 b8 21 3d
       -0.013824378 -0.22923934 0.16312109 0.039482746
000170 51 c9 00 3c 19 81 42 3d 0a e1 b0 3b b9 be 4d 3d
       0.007860498 0.0474864 0.0053979205 0.050230715
000180 2d fc 90 3d 70 66 0f be 9c b2 87 bd 87 f0 42 bd
       0.07079349 -0.1400392 -0.06625864 -0.047592666
000190 5c 40 1f 3d 86 88 79 3c 34 f9 47 3d 56 8f 96 bd
       0.038879737 0.015230304 0.048821643 -0.07351558
0001a0 07 3f 92 3d ea f9 82 bd 19 fc a2 bd ff 01 26 bd
       0.07140928 -0.063953236 -0.0795824 -0.040529247
0001b0 9d 22 a1 bd 94 7e 9f 3d 16 71 a7 bc 2a 9d 4d 3c
       -0.0786793 0.07787815 -0.020439666 0.012549678
0001c0 44 48 6f bd a9 1e 2b bd 6a 56 d1 bd 4b 11 9e bd
       -0.058418527 -0.041777287 -0.1022156 -0.07718142
0001d0 23 00 1f 3c 98 f4 41 bd ca 7e 62 3d fb 35 c0 bc
       0.009704622 -0.047352403 0.055296697 -0.02346324
0001e0 4a fd 07 3d 56 96 24 3e 7f d5 ce 3b 0c 48 34 be
       0.03320054 0.16072974 0.006312072 -0.17605609
0001f0 55 1c 88 3c 32 6e 4f 3d e1 aa 48 3d 53 bc 26 bd
       0.016615072 0.0506422 0.048991088 -0.040706944
000200 c4 9b a1 3d 24 16 14 bd 74 7b 67 bd 6d a6 26 bd
       0.07891038 -0.036153927 -0.05651422 -0.04068606
000210 d3 2d dd bc 08 45 ae bc 1f 5f 00 bd db 04 a5 bd
       -0.02699939 -0.021273151 -0.031340715 -0.08057567
000220 b9 d2 87 3c f6 8a e0 bd 41 f7 27 bd 0b 86 4c 3e
       0.016579973 -0.10964005 -0.041007284 0.19973008
000230 12 9f 9e bd d2 25 aa 3c f7 61 b0 bd b9 1d 1a 3d
       -0.07745184 0.020769987 -0.08612435 0.037626002
000240 31 5e d5 bd 6d 93 8e 3d d6 39 36 3d 46 7f 33 3d
       -0.10418356 0.06961713 0.04448875 0.04382255
000250 45 7e e3 3c f5 2c 08 be 77 b8 74 3d 3d 56 40 bd
       0.027770171 -0.132984 0.059746232 -0.046957243
000260 90 8b 97 3c d6 ab 57 3d cd 74 67 bb 2f 7a e9 3c
       0.018499166 0.05265411 -0.0035317421 0.028500644
000270 02 86 01 be 29 0c 1b bd a6 26 8d 3d df 21 63 3d
       -0.12648776 -0.037853394 0.06892137 0.055452224
000280 66 f8 81 bc 08 2e ec 3c 4b 50 8e 3d 56 b9 3c bd
       -0.015865516 0.028830543 0.069489084 -0.046075188
000290 35 18 05 3d 41 11 0e be be 12 f3 3d 52 df cd 3d
       0.03249379 -0.1387377 0.11868809 0.100523606
0002a0 f7 7e e1 bc 04 22 a3 3d f2 c8 75 3d d8 45 ac bd
       -0.027526362 0.07965472 0.06000609 -0.08411759
0002b0 5a b0 07 3c 2a 83 48 3d 7e c9 d3 bd fc 79 28 bd
       0.008281792 0.048953213 -0.10341166 -0.04113196
0002c0 42 c2 42 3e 24 8d e1 3b fe 25 a2 bc 3b c3 cc 3c
       0.19019416 0.0068832804 -0.019793507 0.024995437
0002d0 27 77 eb 3d e7 9f ab 3d c2 e1 bc 3d 92 fb 6a 3b
       0.11497336 0.08380108 0.092227474 0.0035855514
0002e0 b2 f4 82 bc b6 a5 a8 bc a6 96 60 3d 05 06 13 3d
       -0.01598582 -0.02058683 0.05483117 0.035894413
0002f0 d4 83 c0 3d 31 76 80 3d 5c 76 ab 3d 7f ba ca bc
       0.09400144 0.06272543 0.08372185 -0.024747131
000300 da 03 2a bd 8b a0 6a 3d b0 eb 23 bd 56 22 1e be
       -0.04150758 0.057282012 -0.04001969 -0.15442786
000310 f2 d9 ff 3d 73 98 5f bd 8e bb ce bc b1 e3 27 3d
       0.12492742 -0.054588746 -0.025235917 0.040988628
000320 ea 2a ef 3d 31 95 2a bd 51 ba a2 3d b2 ec 5b 3d
       0.11678107 -0.041646186 0.07945693 0.053692527
000330 4d 96 80 3d 38 cb 35 3c 37 b8 02 be af 3f a5 bc
       0.062786676 0.011095814 -0.12765585 -0.020171968
000340 fc f2 3c 3d c8 2f 1f be 75 db 82 bd 5c b0 87 bd
       0.046130165 -0.15545571 -0.06389514 -0.06625435
000350 5a b3 b7 bd f0 37 64 bc d6 52 6b bd 93 76 42 bd
       -0.089697555 -0.013929352 -0.057452045 -0.047476362
000360 8e d9 45 be cf 30 f1 bd 77 b9 50 3d 22 e5 b4 3b
       -0.19321272 -0.117768876 0.050958123 0.005520479
000370 81 d7 c7 bd 26 96 94 bc 73 87 28 3d 28 30 9d 3b
       -0.09757901 -0.018138003 0.0411448 0.0047970004
000380 ce 2b eb bc 9f 56 e9 bd 9e 6f 2c 3d 90 83 9f 3d
       -0.028707411 -0.11393475 0.042098634 0.077887654
000390 27 48 87 bd ab 2d 37 3b b6 c5 77 bd 43 6a 06 ba
       -0.06605559 0.0027950804 -0.060491286 -0.00051275286
0003a0 27 ae 7a bb ef 62 4e bd 70 12 5b bd 05 73 ab bd
       -0.0038250776 -0.05038732 -0.05348438 -0.083715476
0003b0 b9 78 f6 3b d5 68 b8 bd 3b 12 c2 3d c9 fb 03 be
       0.0075217155 -0.0900437 0.094761334 -0.12889017
0003c0 8f 6b 20 bd 7e d1 49 3d 92 f2 17 3d 0d 46 17 3d
       -0.039165076 0.049272053 0.037096567 0.03693204
0003d0 72 b0 49 bd 67 8e 5d bd 18 df 4e bd 62 b4 47 3d
       -0.049240537 -0.054090884 -0.050505728 0.04875601
0003e0 26 a3 ce 3c f8 0c 6f bd b8 f6 47 bc 4a 61 9b 3d
       0.02522428 -0.058361977 -0.012204818 0.07586916
0003f0 d3 5c 38 bd 5e c7 8c bc 99 ca 5e bd ef 93 e6 3d
       -0.0450104 -0.01718491 -0.05439243 0.11258685

fc1.bias f4 [128]
000000 70 67 a4 3d b4 0a f9 bb 61 15 77 3c 00 9b 67 bd
       0.08027542 -0.007600153 0.015080781 -0.056544304
000010 4b 4b cb 3c 80 ee 79 bd 36 16 40 bd ae 58 76 bd
       0.024816176 -0.061018467 -0.046896182 -0.060143165
000020 6d d1 8e 3c a4 9f a6 3d 1b bc d9 3d 37 00 56 3d
       0.017433846 0.08135918 0.106315814 0.0522463
000030 a1 9b 00 3e f7 ba b7 bc 64 b7 80 3c ab 07 24 bd
       0.12559368 -0.022428019 0.015712447 -0.040046375
000040 51 3f aa bd 39 0e 0d bd 35 ba a5 3b 15 18 49 bc
       -0.08312858 -0.034437392 0.005057598 -0.012273808
000050 02 9b 54 bd 63 e5 9f 3d 32 6d b0 bc 2b ff a0 3d
       -0.05190564 0.07807424 -0.021536443 0.078611694
000060 5e c6 f8 bc 15 ba 87 3c 3a b9 93 3d 92 0d da bd
       -0.030368026 0.016568223 0.072130635 -0.106471196
000070 00 d1 a7 bd 6d 67 32 bd b2 50 e1 3d 41 eb 87 3d
       -0.081941605 -0.043555666 0.110017195 0.06636668
000080 d4 a0 9e 3d 3a bc b6 3d 32 bf 53 bd e7 ca 48 3d
       0.07745519 0.0892262 -0.05169601 0.049021628
000090 47 f9 97 3d 35 55 d9 3d 45 ae 0e 3e 1a a1 64 bd
       0.07420593 0.10611955 0.13933666 -0.0558177
0000a0 ae d2 32 bd 9a 63 49 bc 2d e4 67 3d 33 92 7a bd
       -0.04365795 -0.012291813 0.05661409 -0.061174583
0000b0 2d ac a8 3c 46 bc 0d 3e fe 3f cc 3d 8a 68 af 3c
       0.020589912 0.13841352 0.09973143 0.021412153
0000c0 4d 10 e3 3c 40 d8 90 3d 59 13 5d 3d 0b 57 b1 3d
       0.027717734 0.070724964 0.05397353 0.0865918
0000d0 c3 f6 a9 bd ad 80 11 3d 97 a9 48 3c 17 aa 58 3d
       -0.08299019 0.035523105 0.012247465 0.052896585
0000e0 bf 14 b7 3d a1 44 64 3d 5a 38 e1 3b 8a 6f a7 bd
       0.08939504 0.055729512 0.0068731727 -0.08175571
0000f0 ee 79 45 bd 9b 1a 4e bd a2 22 a2 3d 34 1b 91 3d
       -0.048211984 -0.05031834 0.07916762 0.07085267
000100 28 de 80 bd cf 4b 56 bd e7 6f 01 3d d7 a7 c9 3a
       -0.06292373 -0.05231839 0.03160086 0.0015385103
000110 55 e9 23 3d 93 51 98 3d 31 b9 7d 3d df 81 1f bd
       0.040017445 0.07437434 0.06194419 -0.038942214
000120 71 57 12 3d 1e 4e 97 3d 0b d4 56 bd c2 bf ac 3d
       0.035727922 0.073879465 -0.052448314 0.084350124
000130 91 da b5 bc a1 0c 5e 3d 13 e9 e4 bc c5 58 1f bc
       -0.022198947 0.054211263 -0.02794317 -0.009725754
000140 a1 ef cc 3c 60 d4 d2 3d 21 c6 5e 3c 30 8d 0b 3e
       0.025016608 0.102944136 0.013597042 0.13628078
000150 de 9e 6b 3d 36 8c 13 3e ab ee b1 bd 70 05 d9 3d
       0.057524554 0.14408955 -0.086881004 0.1059674
000160 d0 ca 0c 3d f6 f4 09 bd 8b c2 ed 37 2a 36 74 3d
       0.034373105 -0.03368088 2.8343193e-05 0.059621967
000170 10 14 36 3d 1b d0 ee 3c 52 33 bf 3d 34 2f 64 3c
       0.044452727 0.029151967 0.093359604 0.01392727
000180 d6 0c 5c 3d 28 ab 0d 3d ea 19 02 bc aa 5b 51 bc
       0.05372318 0.034587055 -0.007940749 -0.012778202
000190 01 85 31 3d 90 9b 8f bd 84 1c 8d 3c f6 5f a1 bd
       0.043339733 -0.07012093 0.017225511 -0.07879631
0001a0 26 b8 93 3d 6d 2d f2 bd 26 cc 3c 3d d3 58 c5 3d
       0.07212858 -0.118250705 0.04609313 0.096360825
0001b0 cf db 05 3b c0 2d 54 3d 27 e7 e8 bc f0 8c aa 3d
       0.0020425206 0.051801443 -0.028430535 0.08327663
0001c0 a5 18 75 3d 42 8f c4 bc 23 7b 80 bc 19 e7 39 3d
       0.059837956 -0.023994092 -0.015683716 0.045386408
0001d0 55 c1 7c bc 2f c9 20 3d f8 34 ef b9 01 30 4f 3d
       -0.015426953 0.039254364 -0.00045625097 0.05058289
0001e0 11 a8 c3 3d 6d 41 ec 3b f5 c9 95 bc 05 2c d1 bc
       0.095535405 0.007209948 -0.018284777 -0.025533685
0001f0 c3 39 9d 3b c9 00 ee 3d 76 74 3f bc 04 d7 3d 3d
       0.0047981455 0.116212435 -0.011685481 0.046347633

fc2.weight f4 [64, 128]
000000 d6 4b 8c 3d bb 1c 44 bd 45 d2 37 bd 63 36 96 3d
       0.06850402 -0.047878962 -0.044878263 0.07334592
000010 b4 37 bf 3d bc 09 12 3e b9 b0 29 3d 00 2f d9 3d
       0.093367964 0.14261526 0.0414283 0.10604668
000020 b4 b0 ac bc 65 ba 49 be 7c 1e 85 3d 75 75 18 3e
       -0.021080352 -0.1970001 0.06499955 0.14888556
000030 8a cb 3b 3d 62 d8 9d bc e0 bc 73 3d c2 e9 e8 3c
       0.045848407 -0.019268218 0.059506297 0.028431777
000040 a9 21 a5 3d e8 cc 83 bc 57 5c 68 3b d2 22 15 3d
       0.08063061 -0.016088918 0.003545543 0.03641016
000050 21 02 44 bc 1d fe 78 bc ff c5 9e 3d 17 4d bb 3d
       -0.011963398 -0.015197304 0.077526085 0.09145563
000060 55 53 29 3e 6a ad e0 bc 5d 34 9d 3b 11 18 38 ba
       0.16535695 -0.02742644 0.004797502 -0.0007022629
000070 ee b9 7b bc 2c 6f 75 bd 76 e0 c4 bd 29 b8 9d bd
       -0.015364153 -0.059920475 -0.09613125 -0.077011414
000080 ce a3 40 bd c0 35 02 3d 0e 14 b4 3d a2 0c 18 3d
       -0.047031216 0.03178954 0.08792888 0.037121423
000090 a7 62 b5 3d c5 d5 5c bd 67 2d 82 bd 16 fe ba bd
       0.08856707 -0.053914804 -0.06356316 -0.09130494
0000a0 e9 af db 3d 3b 85 04 3e 4f 07 9b bd 4a d4 91 3d
       0.107269116 0.12941448 -0.075697534 0.07120569
0000b0 9e 0b b3 bd 17 c2 f4 bd 32 e5 8e bc f3 60 f4 3d
       -0.0874245 -0.11951082 -0.017443273 0.11932554
0000c0 88 66 a2 bc 23 9c 63 3d 22 5c 14 3d d5 fa 1f bd
       -0.019824281 0.055568825 0.036220677 -0.03905757
0000d0 7f 21 0f 3d d7 98 dd 3b 90 21 c7 bd cd 9a 83 3d
       0.034944054 0.0067626047 -0.097231984 0.0642601
0000e0 e3 30 23 3d d5 75 06 3e 6d f2 ed 3b f9 dc 5e 3e
       0.039841544 0.13130887 0.0072615654 0.21763982
0000f0 35 9d c0 bc b2 ec f5 3c ca f0 9f 3c 1a c4 0c bb
       -0.023512462 0.030020092 0.019523997 -0.002147919
000100 75 80 f5 bd f0 1f 8a 3c f5 58 0a be 9c cd 80 3c
       -0.11987392 0.016860932 -0.13510497 0.015723042
000110 71 ab 22 3e 0b 05 18 be 36 0b 01 3e 71 a9 93 3c
       0.15885712 -0.14845674 0.12601933 0.018025132
000120 35 24 6a bc 3a 24 0d be 29 f0 94 3d e8 4a b8 bd
       -0.014290859 -0.1378335 0.072723694 -0.08998662
000130 ed fc e5 3c de 22 fd bd 2c a0 bb 3b 11 48 a7 bd
       0.028074706 -0.12360166 0.005725881 -0.081680425
000140 1d 9b 6f 3b 09 67 a3 bd 2f 28 24 3d 9a c1 44 be
       0.003656096 -0.07978637 0.040077385 -0.19214478
000150 db 99 24 bd de 15 9a 3d a0 5e bf 3c 16 dd 60 bc
       -0.04018579 0.07523702 0.02336055 -0.013724586
000160 44 30 a6 3d e4 be 7a 3d c2 6c 7d bd 0a 9e 98 bc
       0.08114675 0.061217204 -0.061871298 -0.018630046
000170 67 39 44 be 3d 75 d6 3c 06 d8 92 bd 7c ee 6b 3a
       -0.19162522 0.02617895 -0.071701095 0.00090000755
000180 24 6a 57 bd a2 dc 01 3e 89 28 16 be 1e a7 7d 3d
       -0.052591458 0.12681821 -0.146639 0.061926953
000190 87 c6 2d 3d c9 65 f2 bc 56 45 0d be a3 e4 67 3d
       0.04242566 -0.02958955 -0.13795981 0.05661453
0001a0 d7 a4 39 bd 4f c5 9d 3d af 84 02 be de 1b 9f 3b
       -0.04532322 0.07703649 -0.12745927 0.004855617
0001b0 ef fc 13 3d 54 50 73 bd c8 d5 da bd ed 86 5a 3d
       0.03612989 -0.05940278 -0.10685307 0.05335133
0001c0 45 b9 88 3d f3 5f 37 3e 8d 99 02 bd 47 c6 2a 3d
       0.06675962 0.17907695 -0.03188472 0.041693
0001d0 09 69 f1 3d 02 1e 13 be e4 72 06 bd 10 86 37 bd
       0.11787612 -0.14366916 -0.032824412 -0.044805586
0001e0 aa 2a 7e 3d d2 22 81 3d ec 96 55 3d b7 2a 1a bd
       0.062052406 0.063054696 0.052145883 -0.037638392
0001f0 b8 e0 0f 3d 1d 0b fa bc 11 ac ac 3c e5 cb b5 3d
       0.035126418 -0.030522877 0.021078141 0.088767804
000200 bf 0c e0 3d 7b 00 15 3d a1 3c a1 3c 83 56 65 3d
       0.10939931 0.03637741 0.01968223 0.055990707
000210 6c 0c ec bc 5b 6c 39 3c cc 3e 15 bd 3c b9 13 3e
       -0.028814517 0.011317338 -0.03643684 0.1442613
000220 36 d3 e5 3d 16 e2 a9 3d 0d 2c e1 bd 29 05 9c 3d
       0.11221926 0.082950756 -0.1099473 0.07618172
000230 05 b8 3c 3d 04 e5 af bd 1b 2a 6b 3d 7c 5e d6 bd
       0.046073932 -0.08588603 0.0574132 -0.1046724
000240 46 f5 1d 3d 12 ec f5 bc b5 39 86 3d 90 81 99 3d
       0.03856399 -0.030019794 0.065539755 0.07495415
000250 cc 82 cf bd af a5 a1 3d 89 fe 05 3e 73 60 6e bd
       -0.101323694 0.0789293 0.13085379 -0.05819745
000260 72 eb a8 3d e6 c9 a2 3c e3 f9 04 3e 17 4c 3e 3d
       0.08248033 0.019871663 0.12985949 0.046459284
000270 af 2a 0b 3d 91 48 76 bd 57 5d 92 bd d1 61 b7 bb
       0.033976253 -0.0601278 -0.071467094 -0.0055963774
000280 b4 ac 03 be 28 b9 a6 3d be c7 31 3d c1 2e 46 3d
       -0.1285885 0.081407845 0.04340338 0.04838443
000290 bd 98 33 3d 0e 41 2b b9 8c 31 43 be b7 68 2f 3c
       0.043846834 -0.00016332066 -0.1906187 0.010706118
0002a0 cf 9b 2f 3e ed bc db 3d 09 6b 8c 3d 2f 1c 0e bd
       0.1714928 0.10729394 0.06856353 -0.034694847
0002b0 74 23 12 bb b7 90 ff bd f4 9d 30 bb eb e2 19 3e
       -0.0022298964 -0.12478774 -0.0026949616 0.15027969
0002c0 aa 8c 65 3d 8b b1 5a bc 2a a1 44 bc 76 01 70 bd
       0.05604235 -0.013347994 -0.012001315 -0.058595143
0002d0 38 0a 8a 3d 03 80 50 3d c8 7d 23 bd f4 dd 1b bd
       0.0674023 0.05090333 -0.039914876 -0.038053468
0002e0 86 65 95 bd da a7 8c 3d bd 00 18 be 56 2e d1 3d
       -0.07294755 0.06867953 -0.14844032 0.10213916
0002f0 39 e6 ae bc d2 73 40 3d 91 6f ab 3d d7 9e 8e 3d
       -0.021350013 0.046985455 0.08370889 0.0696389
000300 73 3e 51 3c f5 6d 3f 3d c9 8d 95 bd 6d 23 90 bb
       0.012771237 0.046735723 -0.07302434 -0.0043987543
000310 30 8b cc 3d b1 5e c4 bd 26 59 60 3e ad 41 f4 3d
       0.099874854 -0.095883735 0.21909007 0.11926589
000320 47 e2 aa 3d 1a 42 04 bd f0 46 e0 bb d5 96 82 bd
       0.0834394 -0.0322896 -0.006844394 -0.06376425
000330 48 8c d0 bd a1 b6 3a bd 88 55 2c be 8a f2 e5 bc
       -0.101830065 -0.045584325 -0.16829503 -0.028069753
000340 f0 16 60 3d e3 24 4d bd a1 18 cd 3b c1 9c 86 bc
       0.054709375 -0.050084006 0.0062590395 -0.016432168
000350 94 71 c3 bc 05 25 3a be 88 6b a2 bd 99 df cf bd
       -0.02385787 -0.18178184 -0.07930666 -0.1015007
000360 9c 68 ee 3c c1 3e 3a 3e a1 70 4a be 7e 99 13 be
       0.029102616 0.18188001 -0.19769527 -0.14414021
000370 b9 5f 3a bd c6 2f 43 bd 2b 87 d8 bd 26 fa 77 bd
       -0.045501444 -0.047652982 -0.10572656 -0.060541295
000380 45 cd bd 3c e5 50 b5 bc 82 2f 97 bd 98 97 5b bd
       0.02316917 -0.0221333 -0.07382108 -0.053611368
000390 0c 68 d1 3d 26 73 d5 bc 5c c7 3f be eb 9b 2a bc
       0.102249235 -0.026055884 -0.18728393 -0.01041315
0003a0 9c c8 82 bd 7d 88 4d bb 3b fc 2f bd 9c 27 88 bc
       -0.063859195 -0.003136187 -0.042965155 -0.01662045
0003b0 e5 68 1b be 38 a9 f2 bc 33 33 08 bd 63 8b b6 3d
       -0.15176733 -0.029621705 -0.033251952 0.08913305
0003c0 e0 5e 99 bd 8d 7d e8 3c 62 a4 09 3d 49 ae 9c 3c
       -0.07488799 0.02838018 0.033604033 0.019126074
0003d0 5a 9f b3 bd a4 7c d3 bd 97 2a c5 3c 0a 46 03 3e
       -0.08770628 -0.10326508 0.02406816 0.12819687
0003e0 c9 8c 14 3e 21 ad cd 3c ee 68 61 bd 61 04 ac bc
       0.1450683 0.025106968 -0.05503171 -0.020998182
0003f0 e7 8a 0b bd 3b 89 06 3d 50 66 c9 bc 73 b1 67 bd
       -0.034068014 0.032845717 -0.02458492 -0.056565713

fc2.bias f4 [64]
000000 eb 4e d1 bd 3f c2 3b bd 0a eb 09 be 65 5d 50 bd
       -0.102201305 -0.045839544 -0.13468567 -0.050870318
000010 8b 36 c4 bd 7a a0 7b bd 00 e1 21 bd a9 65 a2 bc
       -0.09580716 -0.06143234 -0.039521217 -0.019823866
000020 62 e9 cf 3d 4c ed b3 bb 83 47 11 bd 28 3a da 3c
       0.10151936 -0.0054909345 -0.03546859 0.02663906
000030 f1 7b 42 bd fd f0 0d 3d d0 42 c3 3c 05 33 f1 bd
       -0.04748148 0.034653652 0.02383557 -0.11777309
000040 f4 6f ba 3d 52 ea 53 bd 10 db 5e bd f5 4b 4f 3d
       0.091033846 -0.051737137 -0.054408133 0.050609548
000050 02 9d 85 3d 51 90 a4 3c d4 1c fb bc ac e4 41 3d
       0.065240875 0.020088347 -0.030653395 0.04733722
000060 d5 73 00 3b 9f 75 cf bc 09 fd ef 3a 6f 30 e0 3b
       0.0019600291 -0.02532464 0.0018309663 0.0068417112
000070 37 e0 a3 bb ee ad 0c 3d a1 42 5a bd cc 80 86 3c
       -0.0050010937 0.03434556 -0.0532862 0.016418837
000080 9a 8a 8b bc 11 03 fd 3d 81 10 9c 3b 54 34 bc 3c
       -0.017033864 0.123541005 0.0047627096 0.02297417
000090 ab 37 c2 bc 97 02 14 bd e2 cb 36 bd e4 b0 ac 3d
       -0.023708185 -0.036135282 -0.04462803 0.08432177
0000a0 b8 42 03 bd 90 57 d2 bc 08 c7 24 3d 66 1d 81 3d
       -0.03204605 -0.025676519 0.040228873 0.063044354
0000b0 49 41 d7 3d 02 c3 d4 bd 3b fc 55 bd e4 98 9a bd
       0.10510499 -0.10388757 -0.0522425 -0.07548693
0000c0 17 8c 09 be 0b 70 4f 3d 6d b6 1f bd ed 0a c1 b9
       -0.13432346 0.050643962 -0.038992334 -0.0003681997
0000d0 a7 9b 33 3d b7 8a 4c 3d 16 f5 1c 3c 4b 77 98 3c
       0.043849614 0.049936976 0.009579917 0.01861157
0000e0 e3 30 09 3d 0a c1 4a 3d 65 31 ac bd d7 e4 d0 bc
       0.033493888 0.049500503 -0.08407859 -0.025499744
0000f0 ce 71 79 3d fe 45 de bd 53 72 cf 39 d2 af c0 3d
       0.06089955 -0.10853194 0.00039567295 0.09408535
